MyCourse/results/pitch_cnn/pitch_cnn.pt (torch, 47341 bytes, 6 tensors)

net.0.weight f4 [32, 1, 5]
000000 08 42 4c bd 24 3f 0f be 17 c9 f5 bd 3c 1d 0f be
       -0.04986766 -0.1398893 -0.120012455 -0.13975996
000010 a5 17 68 3c 2a eb 92 be d3 6a ae be 27 39 2b 3e
       0.014165794 -0.2869504 -0.34065875 0.1672102
000020 43 4f 84 3d f0 bf cb 3e 4b 3e 0f be 26 21 62 3e
       0.064604305 0.39794874 -0.13988607 0.22082958
000030 06 ca 87 3e f4 77 89 bc 88 46 a6 be 78 ff 42 3e
       0.2652132 -0.01678083 -0.32475686 0.19042766
000040 8d f5 ae 3d 10 49 e0 bd 69 cb a7 bd 86 71 92 3e
       0.08542929 -0.109514356 -0.08193094 0.28602237
000050 66 03 01 3f 6f fe 07 3f d6 df a4 be ef 38 ac 3d
       0.5039581 0.5312261 -0.32202023 0.08409297
000060 99 36 2d 3e fd ec f0 3d 2f 6b 9e be 9c ca 24 be
       0.16915359 0.11763952 -0.3094115 -0.16092914
000070 a3 2f 8a be c4 d6 f9 bd 6e 08 ce be 39 81 96 bd
       -0.2698947 -0.121991664 -0.40240806 -0.07348866
000080 50 3e f5 be 3d f8 34 be 26 53 8f be ad ff ec 3e
       -0.47899103 -0.1767282 -0.27993125 0.46288815
000090 11 ca d5 be 01 22 7e be b6 ec 14 3e 05 73 97 be
       -0.41755727 -0.24817659 0.14543423 -0.2957994
0000a0 9c 92 2e bd 04 45 44 3d 9b f1 85 be cb 31 0f 3d
       -0.042620286 0.04791738 -0.26160893 0.034959596
0000b0 59 53 7e be e6 5d 8f 3d 36 a9 a8 3e 99 f0 5d be
       -0.24836482 0.070003316 0.32941598 -0.21673812
0000c0 65 03 1f 3d 5c ec cc be 07 08 42 3e 95 67 d1 3d
       0.038821597 -0.40024078 0.18948375 0.10224835
0000d0 fa cb 17 3e 15 a3 5e 3d 66 c3 19 3e 14 d0 cc 3e
       0.14823905 0.054354746 0.15015945 0.400025
0000e0 b7 7f 0e 3e 8c b3 ba bd 04 74 86 3d 0f 10 3f be
       0.13915907 -0.09116277 0.06565097 -0.1865847
0000f0 7b df 72 3d 1a af 64 3e 57 77 bd 3e 44 b8 d0 bd
       0.05929516 0.22332421 0.37005112 -0.10191396
000100 67 99 99 be 42 d5 27 3d 3c 2f 16 be 38 17 2e 3d
       -0.2999985 0.040974863 -0.14666456 0.042502612
000110 80 c8 1f 3e 42 4a 6c 3b a2 2c 74 3e 18 7f a0 3e
       0.15603828 0.0036055003 0.23845151 0.31346965
000120 df 17 9d 3e 9f 9a ec bd 1a be f8 3e b3 a0 be 3e
       0.30682275 -0.11552929 0.48582536 0.3723198
000130 23 48 b0 3e ed 80 c3 3e d0 0a ac 3e c4 17 bd 3e
       0.34430036 0.381843 0.33602 0.36932194
000140 ca b9 ca 3e 4d 96 8a 3e b9 30 23 be 9b 97 ac 3d
       0.3959487 0.27067795 -0.15936555 0.08427354
000150 3b 3e b9 be 4d be 89 be 03 2c 96 3e f9 dd 21 be
       -0.3618029 -0.26903 0.29330453 -0.15807332
000160 36 9a b1 be 00 4d 02 bf f6 31 4d be 25 0d 0f bf
       -0.34687966 -0.5089874 -0.2003859 -0.5587943
000170 2b eb 7b be d8 0c dd 3e d2 56 95 3e f0 54 40 be
       -0.24601428 0.43173862 0.291678 -0.18782401
000180 db 5f b7 3e ac bc cc be 21 35 dd bd 47 04 8b bc
       0.3581532 -0.39987695 -0.10801149 -0.016969813
000190 5b 4d db 3e 3b af b6 3e d5 0f 50 3c 76 d2 f3 3e
       0.42832455 0.35680565 0.012699087 0.47621506
0001a0 2e 58 64 3d 92 1d cd be 96 b8 a2 bd f6 1a 3f be
       0.055748157 -0.40061623 -0.07945363 -0.18662629
0001b0 37 2c be 3d 0d c4 8d 3e 10 ec af 3e b3 b6 9a 3e
       0.09285777 0.27688637 0.3435979 0.30217513
0001c0 70 a8 c7 3e ce 88 4d 3a 37 e7 b9 3e ea cd ae be
       0.38995695 0.0007840515 0.36309215 -0.34141475
0001d0 c1 03 8a bd 07 b6 94 bd f0 7c 1b be 76 44 94 3e
       -0.06738997 -0.072612815 -0.15184379 0.28958482
0001e0 bf 2d e5 3e e6 4a f8 3e f7 41 16 be 03 36 c0 3d
       0.44761464 0.48494643 -0.14673601 0.09385302
0001f0 8b 1b df 3e b7 4a bf 3e 10 dc b7 3e 3e 0c c8 3e
       0.435757 0.3736169 0.35910082 0.3907184
000200 a1 60 c0 bd 06 7b 49 3e ee a8 9d be 1f a3 f1 be
       -0.093934305 0.19675836 -0.30792946 -0.47194764
000210 b6 2b 0a be 62 4b 90 be b2 e9 24 3e 6a 27 19 3d
       -0.13493237 -0.28182513 0.16104773 0.037391104
000220 32 9f eb 3e e2 95 bc 3e f8 15 60 3e 61 31 2a 3e
       0.46019894 0.36833102 0.2188338 0.16620399
000230 15 54 c9 3e 02 ef ac be 06 e9 41 3e ad cb 60 3e
       0.39321962 -0.33776098 0.18936548 0.21952696
000240 55 28 8a be e4 48 3f 3e a2 14 58 be c2 a3 a2 3e
       -0.26983896 0.1868015 -0.21101621 0.31765562
000250 a0 f5 17 bf 2d d4 7a 3c f9 02 9a 3e d8 dd ee 3c
       -0.5935917 0.015309376 0.30080393 0.029158518
000260 4b 1f b9 3e 42 9b 8e 3e 04 27 b5 bc 6a af f4 3e
       0.36156687 0.27852827 -0.02211333 0.4779008
000270 b7 34 fa 3e 3a 80 e4 be d2 ee d9 be fd 35 b2 bd
       0.48868343 -0.4462908 -0.42565018 -0.08701704

net.0.bias f4 [32]
000000 f0 f0 f1 3e 56 ae 74 bb ff 4a dc 3a e1 c7 af 3e
       0.47254133 -0.0037335358 0.0016807019 0.34332183
000010 be f2 a6 be ef 70 4f be ab bf ae be 28 4b ad 3e
       -0.32607073 -0.20257924 -0.34130606 0.33846402
000020 20 ea 03 bf e3 af 4c bd d2 da e5 3e 4c aa c0 3e
       -0.5152912 -0.049972426 0.4489351 0.37629926
000030 e1 e6 56 3e 2d 34 ec 3e 62 6c 9d be 7d 52 dc 3e
       0.20986511 0.46133557 -0.30746752 0.43031684
000040 80 2e 31 3d 4b 04 8a be 7e 1e b9 be b2 8f ec 3e
       0.043257236 -0.269564 -0.36156076 0.4620338
000050 8d e3 a1 bd ea 26 b6 be 11 f3 8f 3e 6e e3 b3 3e
       -0.0790473 -0.35576564 0.28115132 0.35134453
000060 1f 5d e9 bd ac a6 01 3e c9 22 61 be b9 ee f5 bd
       -0.113947146 0.12661237 -0.21985926 -0.12008423
000070 0e 88 2d 3e 81 e1 b7 be 6a 75 83 be d7 6b 2d 3b
       0.16946432 -0.35914233 -0.25675517 0.0026461983

net.3.weight f4 [64, 32, 5]
000000 ed 9c 4e 3d 98 bb f3 3c ad 20 26 3d c6 9b 10 3d
       0.050442625 0.029752538 0.040558506 0.035304807
000010 62 a9 ec bb ec dd ae bd d6 78 c2 bc 47 28 02 bc
       -0.0072223404 -0.08538422 -0.02373926 -0.007944173
000020 47 7c b2 bd c4 23 33 bd 33 db b6 3c 4e cf fd bb
       -0.0871511 -0.04373528 0.02232132 -0.00774566
000030 9a f5 45 3c 68 47 45 3d 07 08 f6 bc 9a 9c 39 bb
       0.012082482 0.0481638 -0.030033125 -0.0028322102
000040 05 15 67 3d df 64 45 3b a5 a0 51 3d 2d 9f e0 3c
       0.05641653 0.0030119938 0.051178593 0.02741965
000050 28 aa bc 3d 78 26 d8 3c d1 3f 82 bd 6b 22 7f 3c
       0.09212142 0.02638553 -0.06359828 0.015572171
000060 01 00 9f bb 1f 93 dd 3d db 57 f6 3d e9 ae dc bc
       -0.0048522954 0.10819077 0.12028476 -0.026938872
000070 5c 04 db bc 6c 92 e7 39 16 b1 df 3d 43 90 17 3c
       -0.026735477 0.00044168846 0.10922448 0.009250703
000080 f4 2f 00 3e 2d 80 da 3c f4 07 de 3c 7d af b1 3a
       0.12518293 0.026672447 0.027103402 0.0013556328
000090 74 c6 0b 3d 55 18 a5 bc f0 8f 3c 3d 84 00 35 bd
       0.034124807 -0.020153204 0.046035707 -0.044189945
0000a0 a2 e0 3f 3d 81 a5 f6 bc 30 22 86 3d 9a 99 06 3d
       0.046845086 -0.030108215 0.065494895 0.03286133
0000b0 c1 85 70 3d 3d 79 b8 bc fa d4 88 3d 25 2e ac 3c
       0.058721308 -0.022518748 0.06681247 0.021018097
0000c0 b6 ea ac 3c f7 cf ac 3d ee 7c 27 3d 89 d3 3d bd
       0.021108013 0.08438104 0.040890627 -0.046344314
0000d0 0a c2 a1 bb ed 55 dc 3b 8b fe 83 3d db 27 7d bd
       -0.0049364613 0.0067241103 0.064450346 -0.061805587
0000e0 ca 6b ca 3c 5f 94 2c 3d 79 63 19 bd 34 90 32 3d
       0.024709601 0.042133685 -0.03744838 0.043594554
0000f0 25 a6 3b bd bb cd 43 3d 7f 8d 00 3d e0 6c 6a 3c
       -0.045812745 0.04780362 0.03138494 0.014308184
000100 8d 6a 96 3c 51 2e 42 bc c8 7d 8e bd cc 87 a4 3c
       0.018361354 -0.011851863 -0.069575846 0.020084284
000110 01 00 34 3d 3e 09 05 3d 66 1b e4 3d d1 05 c6 3d
       0.043945316 0.032479517 0.11138038 0.09669078
000120 c8 97 40 3d 8a 4e 26 3c c6 fc ef bc 74 12 95 3c
       0.04701975 0.010150561 -0.029295336 0.018197276
000130 68 d7 07 bd 81 11 b9 3d c9 db 6d 3d 1f 12 6e bd
       -0.03316441 0.09036542 0.05807093 -0.05812275
000140 ff 89 cc 3c 79 1f a5 3c 12 f3 6a 3d ba 09 e7 ba
       0.024968145 0.020156609 0.057360716 -0.00176268
000150 fb fc 41 3d c1 03 0e 3d 86 6c b9 3d d7 28 f5 3d
       0.0473604 0.03467155 0.09053902 0.1197068
000160 df ee a8 3d c6 ea bc 3d 32 66 1f 3c 6c 0a 69 3d
       0.08248686 0.09224467 0.009728955 0.056894705
000170 df 1c c0 bc 07 6f 44 bd 59 d4 0f bd 8c 7a 25 bc
       -0.023451267 -0.047957446 -0.03511462 -0.010100018
000180 18 71 b4 3c ee 53 60 bd 90 21 16 bd fc d3 5e bd
       0.022026584 -0.05476754 -0.0366531 -0.054401383
000190 05 b8 5a 3d d9 52 2a 3d 10 7e da 3d 55 3b fa 3c
       0.05339815 0.041582916 0.10668576 0.03054587
0001a0 8e 8a f7 3b 19 08 2a bd ad c7 1b 3d 39 bb 1a 3d
       0.007554359 -0.04151163 0.038032223 0.037776206
0001b0 97 24 e2 3b 48 c8 93 bd 13 ac 5a 3d 38 13 68 bd
       0.0069013345 -0.07215935 0.05338676 -0.056658953
0001c0 61 c4 1c bd 45 42 86 3c bc 05 82 bb 22 32 16 bd
       -0.03827322 0.016389022 -0.0039679687 -0.036668904
0001d0 ce db c3 bc bb 54 b0 3c 1f 0a ba bd 1f 3a cc bd
       -0.023908522 0.021524778 -0.09083962 -0.09972023
0001e0 e0 b2 ee 3c ee 6c 7e bc 40 d1 1a ba 9c 0d 28 3d
       0.029138029 -0.015528901 -0.00059058145 0.041028604
0001f0 94 0a df 3d f3 9f 2c 3d c4 46 d5 3a 37 f3 28 bd
       0.108906895 0.042144727 0.00162717 -0.041247573
000200 b3 9f 6c 3c ff 8d d6 bc 0d b5 84 3d 93 44 a4 3d
       0.014442372 -0.026190756 0.06479845 0.08020892
000210 ac 34 17 3c 0d 63 dd 3d 1c 12 1d 3d 7d 33 38 bd
       0.009228867 0.10809908 0.03834735 -0.044970978
000220 13 0b 30 3d f3 57 9f 3d 42 27 3b 3d 36 87 92 3d
       0.04297931 0.07780447 0.045691736 0.07154696
000230 34 49 37 3b 2f 0b 14 bd b6 e6 e4 3c b1 8c 94 3c
       0.0027967216 -0.036143478 0.027942043 0.018133493
000240 56 eb 18 bd e6 c5 86 bd e0 b5 1f 3c 72 6d 28 bd
       -0.03733381 -0.06580715 0.009747952 -0.04112
000250 80 76 f7 bd 03 03 05 be 94 33 bb 3d 8d b7 c5 3d
       -0.12083149 -0.1298943 0.09140697 0.0965415
000260 8c d6 97 3d 61 74 d1 3d f0 49 df 3c 33 3d ab 3d
       0.074139684 0.10227276 0.027256936 0.08361282
000270 cb 23 46 3c d8 24 31 3b 53 37 34 bd 73 21 9a 3d
       0.012093495 0.0027030017 -0.043998074 0.07525911
000280 5d 0a 8b bd 0e fc 26 bd d2 97 9b bd b6 6a 03 bd
       -0.06789086 -0.04076772 -0.07597317 -0.03208419
000290 b1 3a f2 bc f8 d1 8d 3d 5f b2 7c 3d 3d 6a 3c 3c
       -0.029569002 0.06924814 0.061693545 0.011499939
0002a0 48 d3 fb bb c5 6e 41 3d 59 28 76 bd c1 ea 39 3d
       -0.007685099 0.04722478 -0.060097072 0.045389894
0002b0 8e c7 95 bc 10 45 d0 bc 88 9a 3a 3d 5f 41 c1 bc
       -0.018283632 -0.025423557 0.04555753 -0.023590742
0002c0 3e 25 8a 3d 98 a0 09 3d a5 59 09 bd 48 1f aa bc
       0.06745385 0.03360042 -0.033532757 -0.02076687
0002d0 0b 0e 32 3d 84 a1 43 3d d0 bf 89 bd b8 6a ce 3c
       0.043470424 0.047761455 -0.067260385 0.025197372
0002e0 12 7d 98 bd c7 88 4e 3d 54 0d bd bd 85 05 92 bd
       -0.0744573 0.05042341 -0.09231058 -0.07129959
0002f0 ad 55 3a bd f1 b6 0b 3d ad 54 0c 3d da e3 39 bd
       -0.045491863 0.034110013 0.03426044 -0.04538331
000300 74 6a 0b bd 56 b8 13 bd 07 68 c6 3d 6f 23 7a bd
       -0.03403707 -0.03606447 0.096878104 -0.06106895
000310 94 d4 c5 bc 23 08 38 bd 30 f1 37 bd 27 1a 86 3d
       -0.024149217 -0.044929635 -0.04490775 0.06547957
000320 be 8a d1 3b aa 03 ea bd 56 f8 1a be e6 db 87 bd
       0.006394713 -0.1142648 -0.15133795 -0.06633739
000330 ca 33 1c 3c b9 c0 30 bd c1 7c 5f 3d 36 92 2c bd
       0.009533832 -0.043152545 0.054562334 -0.042131625
000340 53 f7 19 bd 44 4c b9 3d 70 ba 62 bd 5c 83 79 3d
       -0.037589382 0.0904775 -0.055353582 0.06091629
000350 b1 98 a4 3c 6f 3b ce bb 41 e8 95 bc ae 6f 80 3d
       0.02009234 -0.006293706 -0.018299224 0.06271301
000360 cb 42 86 bd 29 a3 66 bd e5 08 a2 bd 6f 8e 7b 3d
       -0.065557085 -0.056307945 -0.07911853 0.061415132
000370 6b 8a 8a 3d de 05 03 3d cc 09 9f bd 4c 99 c2 bc
       0.067646824 0.031988017 -0.077655405 -0.023754738
000380 2c 6d 19 bc 53 7f 89 3d 64 eb ec bb b5 36 9b bc
       -0.0093644075 0.06713738 -0.007230209 -0.018946985
000390 56 4f 11 bc dc ed dc 3b 4e 85 50 bd d1 3e 58 3c
       -0.008869013 0.0067422222 -0.05090838 0.01319857
0003a0 62 86 78 3d 77 28 a7 bb c5 75 15 bd 8e a3 c3 bc
       0.060675032 -0.0051012593 -0.036489267 -0.0238817
0003b0 ac 83 60 3d 29 1c 1e 3d ae d8 6c bd 6b c0 b8 bd
       0.054813072 0.038601074 -0.05782383 -0.09021076
0003c0 74 a8 5b 3c 87 f3 34 3c 9c b3 41 bc 9f 0a 78 3c
       0.013406862 0.01104439 -0.011822607 0.015139251
0003d0 ee ef 9e bc 96 c0 b0 bd 9c 21 79 bd 1a 73 29 bd
       -0.019401517 -0.08630483 -0.060823068 -0.041369535
0003e0 b8 79 71 3d 78 cc 89 bc 57 f3 fb 3d 93 ed 7f 3c
       0.05895397 -0.016821131 0.12302273 0.015620607
0003f0 d5 05 9d bd 24 34 a0 bd 5d 0e a4 bd 4b 8e 05 bb
       -0.07667128 -0.07822445 -0.08010552 -0.0020379003

net.3.bias f4 [64]
000000 44 26 20 3d f3 d8 b7 3c 38 32 28 3d 1c 5d 34 bd
       0.039098993 0.022442317 0.041063517 -0.04403411
000010 cd ec bc bd 29 1a 29 3c 07 b1 ef bb 6f 9a 50 3c
       -0.09224854 0.0103211785 -0.0073148045 0.012732132
000020 c5 0d c4 bc d4 4c 82 3d 5b 9e 78 bd 97 3f 53 bc
       -0.023932347 0.0636231 -0.060697895 -0.012893579
000030 5c a7 9f bd e7 92 ba bc 7a 97 ba 3b fe fa 04 3d
       -0.07795593 -0.022775127 0.005694327 0.032465927
000040 b4 91 05 3e 7a ad 7f bd 0d e7 9e bc db dd 61 3d
       0.13043863 -0.0624213 -0.019397283 0.05514322
000050 e9 12 bf 3d 2e dc 9a 3c 9f e2 a2 bd 10 3c b1 3d
       0.09329779 0.018903818 -0.07953381 0.08654034
000060 cd b0 9c 3c 60 fd 41 3d 5a f7 50 3d 20 23 4b 3b
       0.019127274 0.047360778 0.051017143 0.0030996278
000070 4b e0 6c 3d fc 4e d1 3d aa ac 82 3d c4 3f 09 bc
       0.05783109 0.10220143 0.06380589 -0.008377019
000080 39 f1 92 3d fb cc 67 bd f4 54 22 bd c1 72 33 bd
       0.07174916 -0.05659197 -0.0396318 -0.04381061
000090 1d 40 09 3d 5e da b2 bc 0c 32 24 3c e8 59 97 bd
       0.03350841 -0.021832641 0.010021698 -0.07390195
0000a0 3d 9f b1 3d af ea 23 bd 52 08 87 bb a4 e2 3b 3d
       0.086729504 -0.040018734 -0.004120865 0.04587044
0000b0 c7 1c 19 bd c8 3f ce 3c 9c a1 22 bd b7 49 1e 3d
       -0.03738096 0.025176898 -0.039704904 0.03864452
0000c0 a3 2c 8b bd e6 ff 3d 3d 08 2f a3 3c 8e 6e 7f bd
       -0.06795623 0.046386622 0.019919887 -0.062361293
0000d0 47 55 14 bd 4d c6 c9 bd 0a f3 16 bd 47 c5 ee 3b
       -0.03621414 -0.09852276 -0.036852874 0.007286701
0000e0 65 96 53 3d ad 23 18 3d cb 9e c6 3d de 46 2c 3d
       0.0516571 0.037143398 0.09698256 0.04205977
0000f0 4e 4b cc 3c d9 a2 c9 3c b7 c5 d3 3c 89 8b 8e bd
       0.024938252 0.024613785 0.025851114 -0.06960208

fc.weight f4 [8, 64]
000000 ef 0b cd bd cc 9c 9e bd 9f e2 cf 3d 67 a6 00 3d
       -0.10012042 -0.077447504 0.101506464 0.031408694
000010 8c c8 85 3d ac 35 8e 3c 41 09 e2 bb 22 ed 23 bd
       0.06532392 0.017359577 -0.006898076 -0.04002107
000020 ff 80 d0 bd 86 25 f0 3d a1 f8 5d bd ca 5d bc bd
       -0.10180854 0.11725907 -0.05419219 -0.09197576
000030 aa 61 b8 bc 43 67 c9 bd 2b 43 17 bd 08 ee 03 be
       -0.022507507 -0.09834149 -0.03692929 -0.1288377
000040 cc 8d 2e 3e 5e 38 99 3d 3c 08 75 bd eb a9 dc bc
       0.17046279 0.07481454 -0.059822306 -0.026936492
000050 67 ea 1e 3e 04 0f 15 be 66 4d 80 bd 6e 5e fc 3d
       0.15519105 -0.1455651 -0.062647626 0.123226985
000060 79 e5 25 be 13 e5 ce bd 60 49 9d bd ab ac f0 bc
       -0.16200818 -0.10102286 -0.07680011 -0.02937921
000070 13 aa 13 bc 0b e7 99 bb 52 12 d2 3d 5e 3b 34 3e
       -0.009012717 -0.004696732 0.102574006 0.17600772
000080 09 4c 0f be b2 49 93 3d 40 6a 18 3d b0 ea 15 3e
       -0.13993849 0.07191791 0.037210703 0.14640307
000090 1a ff 1f ba 8b e7 cc 3d 9d 34 24 3d 7c 1a 8e 3d
       -0.0006103382 0.10005101 0.04008924 0.06938645
0000a0 bb 2d cf 3d 29 89 0a be be 83 63 bd 36 24 3e bd
       0.10116144 -0.13528885 -0.05554556 -0.046421252
0000b0 77 04 02 3e 8a 17 f9 bc 14 1f 90 bd 8b 7b e3 bc
       0.12697016 -0.030406732 -0.07037178 -0.02776887
0000c0 de aa a4 bc 25 96 af 3d 07 44 96 bd 49 a1 a6 bd
       -0.020101007 0.0857356 -0.07337194 -0.081362315
0000d0 6d d1 ca 3b 4e 36 1d bd 6f 28 36 be 96 11 7e 3d
       0.0061895163 -0.038381867 -0.17788862 0.06202849
0000e0 6b 67 4d bd d8 b2 b4 3d 98 81 14 3e ad 8e 07 3c
       -0.050147455 0.08823174 0.14502561 0.008273763
0000f0 08 51 f3 3c 94 3f 44 bd 21 ab 03 bd 01 cc 9a bc
       0.029701725 -0.047912195 -0.032145623 -0.018896105
000100 c4 59 71 ba 91 55 72 3c 97 31 91 3d 09 54 d8 3d
       -0.00092067965 0.014790908 0.07089537 0.105629034
000110 bd 2b 57 bd 5c d1 04 3e 1f 2b c4 bd da 19 8e 3c
       -0.052531946 0.1297049 -0.09578537 0.017346311
000120 f2 32 a2 3d f8 17 b7 3c 94 32 56 b9 59 14 e4 bd
       0.07919873 0.022350296 -0.00020427472 -0.111366935
000130 b2 8e b5 3c 30 47 90 3d 76 d3 81 3c 8d d7 80 3d
       0.022162769 0.07044828 0.015847903 0.06291113
000140 ec 94 0c be c7 b7 23 3d 91 30 71 3d 4d 95 08 be
       -0.13728684 0.039970186 0.058884207 -0.13338204
000150 ba 0d 27 be f1 39 53 bd 22 85 af 3d 4c c4 46 be
       -0.1631383 -0.05156893 0.08570315 -0.19410819
000160 23 04 a3 bd a0 9e 48 3d 66 4f 0b 3b ed ac 03 3e
       -0.079597734 0.0489794 0.0021257042 0.12858935
000170 89 68 15 be 83 ef 30 3d 5d a1 31 be 42 21 82 be
       -0.14590658 0.043197166 -0.17346711 -0.25416
000180 3f 8f b2 bd cf dd 1e bd 22 1c d7 3d c1 3b 85 bd
       -0.08718728 -0.038785752 0.10503413 -0.06505538
000190 f1 39 ca bd 29 8c 28 be ed 60 f1 bd cd 45 c4 bd
       -0.09874333 -0.16459717 -0.11786065 -0.09583626
0001a0 a5 1e b6 bd 15 f4 d5 3d 7e 3c 92 3c f5 91 30 3d
       -0.08892564 0.104469456 0.01785111 0.043107945
0001b0 49 b9 a6 bd 43 02 cb 3d 44 c5 0a 3c 93 b4 4c 3e
       -0.08140809 0.09912541 0.008469883 0.19990759
0001c0 2e 05 a5 39 08 b4 4b 3d 73 5e 45 3d 38 8b 2a 3e
       0.00031475112 0.049732238 0.048185777 0.1665467
0001d0 28 41 31 3e 72 2b 5f be 53 9d 05 3e 61 4a 41 3d
       0.17310011 -0.21793917 0.13048296 0.047190074
0001e0 9f bf d9 bd 2e c8 bc 3d 78 d9 0e be 10 eb ae bd
       -0.10632252 0.09217869 -0.13950145 -0.08540928
0001f0 c6 10 0c bd 86 f7 3b 3e 3c 4d 8c 3d e7 02 33 3e
       -0.034195684 0.18356141 0.06850669 0.17481576
000200 be 96 02 be 03 15 55 bd 59 ed 3a bc 26 02 0a 3d
       -0.12752816 -0.05202199 -0.011409127 0.033693455
000210 39 66 bf 3d 53 da 06 3d af 3a a9 3d fa 22 29 3e
       0.09345669 0.032923054 0.08263146 0.16517249
000220 f8 00 c2 3d 68 4b 06 3e ad 2e ea 3d 5d 15 d0 3d
       0.09472841 0.13114703 0.11434684 0.10160325
000230 d4 a0 95 bd 50 8d 26 be a2 9a 07 3e 3a 57 19 bd
       -0.07306066 -0.16264844 0.13242581 -0.0374367
000240 f8 19 1b 3e 7c 40 1e bc 00 5a b3 3d c8 47 b5 3c
       0.15146625 -0.009658929 0.087574005 0.022128955
000250 ac 1b 75 bd 37 a3 94 bd c8 8d 37 3c bb ae e9 3d
       -0.059840843 -0.07257693 0.011203237 0.1141028
000260 9e 5f 4d 3c b6 c3 ba 3b 70 cb 85 bc 6e bc da bc
       0.012535004 0.0056996 -0.016332358 -0.026701178
000270 bd e7 5e 3d 13 35 60 bd 2f b7 ed 3d bf f6 20 3e
       0.05442022 -0.054738116 0.11607205 0.15719126
000280 f2 b3 18 be c4 0f bd bd 04 65 24 3d d4 f1 d2 3d
       -0.14912394 -0.09231523 0.0401354 0.10300031
000290 3a 18 6b bd c6 b3 63 bd 36 6a 96 3d 90 92 06 be
       -0.05739615 -0.055591367 0.07344477 -0.13141847
0002a0 e4 f1 77 3d b7 b8 e8 bd a7 a4 97 3d 82 4a a4 3d
       0.06053342 -0.113633566 0.07404452 0.08022024
0002b0 0b 40 c3 3d 40 76 b6 bd 61 a7 14 be 6b c3 4f 3d
       0.095336996 -0.08909273 -0.14516975 0.050723474
0002c0 73 c7 d0 bd 1a da 83 bd 0f a4 42 3c ec 93 68 bd
       -0.10194292 -0.06438084 0.011879935 -0.056781694
0002d0 8c 8a ab bd 23 d3 cb bd e9 15 8a bc 60 b6 e2 bd
       -0.08376035 -0.099523805 -0.01685615 -0.110699415
0002e0 74 4e ca 3d f9 63 86 bd b4 e1 56 bc ce ac c4 bd
       0.09878245 -0.06562037 -0.013115335 -0.096032724
0002f0 ec bf b9 bc 62 c6 11 be b7 49 15 be ac 36 2c bd
       -0.022674523 -0.14235833 -0.14578901 -0.042044327
000300 75 20 79 bd 57 77 c2 3d 93 8b 09 3e 43 5b 8d bd
       -0.06082197 0.094954185 0.1343215 -0.069021724
000310 ca 99 55 bd 40 f6 98 bd 67 84 c7 bc c5 33 db bd
       -0.052148618 -0.074688435 -0.024355127 -0.10703234
000320 03 c1 dd bd bc 20 7d 3d 4e 79 e7 bd 22 f1 56 3d
       -0.1082783 0.061798796 -0.11302434 0.052476056
000330 9a 62 95 3d 2f ff 8d bd bb 4a f3 bd 6b 19 a9 3d
       0.072941974 -0.06933438 -0.11879488 0.08256801
000340 8a be e0 3d 6d 02 4d bc c7 dd 9b bb 01 4e 13 3e
       0.109738424 -0.012512785 -0.0047566625 0.14385225
000350 3f b2 91 3d fe 61 75 bd 89 2d fa bc 02 b2 97 3d
       0.07114076 -0.059907906 -0.030539291 0.07406999
000360 cf 55 98 bd dd 3d d0 3d 0d e8 a7 3d e2 52 28 3d
       -0.07438242 0.101680495 0.08198557 0.04109467
000370 36 39 b1 3c 3a 3b c8 3d 60 5f 8d bc 30 a9 a5 3d
       0.021633726 0.097769216 -0.017257392 0.080889106
000380 b2 6e ad bd 03 a7 72 bd e0 ae c1 bd 21 a3 2f 3e
       -0.08468379 -0.059241306 -0.09457183 0.17152072
000390 ab 0e 0c 3e 42 f9 d4 3d a3 90 ad 3d c1 bb db bd
       0.1367747 0.10399105 0.08474853 -0.107291706
0003a0 42 74 93 3d 43 a6 e3 bd 9a 49 a8 3b 05 32 82 3d
       0.07199909 -0.11115696 0.005135727 0.06357197
0003b0 4e c1 12 bd 0a 6a 03 be 3b 5f 69 3d 1f 8f f5 bd
       -0.03582888 -0.1283342 0.056975584 -0.11990189
0003c0 9a 38 c5 bc c5 b9 01 3e 66 e7 b7 3d 2c 6e 5c bd
       -0.024074841 0.12668522 0.089796826 -0.053816006
0003d0 ea 88 f1 bd 24 76 0e 3e d1 80 ae 3d ed 2a 0b 3d
       -0.117936924 0.13912255 0.085206635 0.033976484
0003e0 5b 7e d5 3d cd 8a ad 3d 37 60 96 bc 9c 2e 1e bd
       0.10424491 0.0847374 -0.018356426 -0.03861867
0003f0 47 cb d0 bd fa c9 0e be f7 63 dd bd 4b 35 6d 3d
       -0.10195022 -0.13944235 -0.108100824 0.057912152

fc.bias f4 [8]
000000 99 ba 1d 3d 3c 72 2d 3c 94 9f 57 3d 66 14 c2 bc
       0.03850803 0.010586318 0.05264242 -0.023691367
000010 69 e9 45 3d 75 14 59 bd 6a b3 9b bd 3d dd e9 bd
       0.0483183 -0.052998025 -0.0760258 -0.11419151
