MyCourse/models/mlp_model.pt (torch, 228248 bytes, 20 tensors)

net.0.weight f4 [256, 41]
00000000: ff74 2d3d 3f10 073e a37c 99bc 08b9 15bd
00000010: 12a2 963b 0a3b 2ebe 17f4 a43b 497f 103e
00000020: 3fc1 cd39 188c d0bd fafd 4ebd 67b8 35bb
00000030: a183 aabb d559 ca3d 077b 69bd 2a9f 6ebd
00000040: 55d3 8ebd b653 023e cb5a 4bbd 9be8 7a3d
00000050: e2cc a4bc 51aa f9bc 3b6c 083e 1a4c ea3c
00000060: 5a1d 953d 80df c23d 852f f5bd 381c 893e
00000070: 1193 8fbb 73a8 9abc e3aa 283d 9123 2abe
00000080: f2c3 053e f5a1 673d 711f e7bc 49da 113e
00000090: 248c 8d3b f078 a8be a324 8a3d afa7 bbbc
000000a0: 5224 dd3d 8393 cbbd 4b53 d03d 25ce 35be
000000b0: ef10 f93d da86 b3bd 7895 abbc 5862 c2bd
000000c0: a212 14be ca18 863d 255b 67bd 4b33 0a3e
000000d0: a39b f63d 4ad2 10be 4065 febc 19ad 2ebc
000000e0: 7684 b8bd bd10 a6bb 1d0e d7bd 7ff9 12bc
000000f0: 7b78 fe3c d8c2 0ebd fbfb 02bd 8762 a13d
00000100: c29e 363d 6879 0f3d 6b93 1abd 43df 853d
00000110: 3a20 d3bd fc0f 2b3e da2d edbc d903 6b3d
00000120: dcd6 b93d f2d6 153e 124e 3abe cd24 313e
00000130: ea14 08bd 4bf3 29be 56dc 933d 137e 533d
00000140: 5390 44be 73b7 0abe a4e8 283e 2245 143d
00000150: 0c67 4a3d 65f5 a63c 854a 0abe 25f1 3cbe
00000160: 8b3a 353e 64f2 b8bd f0a9 23bc e6f6 2f3e
00000170: 2504 23bd ea52 1bbe effb cf3c b186 07be
00000180: 3b6c 733e 01c6 5dbd 90d6 513e a8c5 013e
00000190: 0982 e9bd c4a2 21bd 517b 5cbd 2ba3 be3d
000001a0: 7c87 67bd d443 1f3e 9894 34be c8a2 0fbe
000001b0: 77d6 393e ee60 57bd de49 19bc be69 863d
000001c0: eae1 31be 3a85 cb3d 159b f23c 5f40 38bd
000001d0: 7b86 3e3e 2677 f73d 07bf 06bd b85d e03c
000001e0: 21b3 b73b dd75 ddbd d9c8 75bd 180a 193e
000001f0: dedc 223d 6694 263e 11f1 d33d 1f43 a6bd
00000200: d850 b738 c0a3 2bbe 06e3 05be 9b4b 86bc
00000210: 3e27 ad3d 1ad1 a83c ae3b e03c a8cd cbbd
00000220: 03a0 e33d 11a1 443e 2a93 45bd c580 f53c
00000230: fe37 e53d d0a1 58bd a163 b8bb 02d8 793d
00000240: 03b8 363d 172e bfbd 570b 25bd 7d4d d23d
00000250: 65b0 6b3c 4d1d 2f3e d605 ee3d 1542 09be
00000260: f617 923d 5e17 b6bd 5885 6abe 424c 813d
00000270: 3b82 be3c 9b09 56bd 2bb4 d8bd 7ff0 35be
00000280: da90 4cbe 0059 43bd fd7e 7e3a a4ed 19bc
00000290: 6504 993d f0d7 a2bc 5949 263b 44ca 083d
000002a0: 6105 a43c aa64 d23c 4092 bf3d 8239 363c
000002b0: ca2e 11be db4e 403e 84df 8cbd 5ea1 bcbd
000002c0: 196a 633b 6f04 e5bc f0dd 57be e7bd afbd
000002d0: 7ab3 7dba 4ef1 07bc 35e3 1b3d e4c8 993b
000002e0: 9f1c 2f3a e449 0abe 67f6 003d ae8d c8bb
000002f0: 0421 85bc 2ce0 dc3d c2fc 95be 3d8f d53e
00000300: c282 b0bc ca18 793c c55a 9a3d 6af3 e4ba
00000310: 6c49 16be 6df1 a43d b57e 75ba 57a8 bfbc
00000320: b1e7 8abb ec85 5f3d 52ae 3fbc 5a65 1f3e
00000330: 5c18 b7bd d7d5 993d 7e50 e53d 4325 70bc
00000340: 7d1c ebbd b77f 5ebd fee1 19bc 303d 723e
00000350: ca8e bb3d b69d efbc a378 ddbc 7c8b 22bd
00000360: e2c9 50bd ab71 bd3b c4df c4bd 636d 3fbe
00000370: 7766 423d a817 683e fbc3 ad3c 8eda 953c
00000380: 6441 4dbc eb27 f2bb f2f6 a13d 1c92 7cbd
00000390: 6e90 0abe 14c6 e03d 44d0 103e 1b3f 20be
000003a0: 5558 f03d b83d 233d 4ee6 f0bd 8d38 6d3d
000003b0: 73aa cdbd f471 25bc 237b 22bd 44e6 eb3d
000003c0: 17d6 d7bd ff89 49bd 7cfe fabd ace8 95bd
000003d0: 7a57 3a3c f097 4cbe f318 d03d 0138 583d
000003e0: 892b 8d3c 124c 76bd 2c9d f4bc 5e0e 4e3d
000003f0: 7db4 5cbd 418c ee3d 326d 703e f6c9 8b3d
0.042347904 0.13189791 -0.01873619 -0.036553413 0.004596957 -0.17014709 0.0050339806 0.14111055
0.00039244627 -0.10182971 -0.05053518 -0.002772832 -0.0052036797 0.09880415 -0.057002094 -0.05825726
-0.06973902 0.12727246 -0.049647134 0.061256986 -0.020117227 -0.030476721 0.13322537 0.028600741
0.07280989 0.095152855 -0.11971954 0.26779342 -0.0043815454 -0.018879151 0.041178595 -0.1661513
0.13063028 0.05655094 -0.028213235 0.14243425 0.0043196846 -0.32904768 0.06745269 -0.022907106
0.10797943 -0.09940245 0.10172137 -0.17754419 0.12161433 -0.08765955 -0.020945296 -0.09491414
-0.14460233 0.06547697 -0.056483407 0.13496129 0.12041404 -0.14142719 -0.03105414 -0.010661387
-0.0900964 -0.0050679133 -0.10500739 -0.008970617 0.031063309 -0.034853786 -0.03197859 0.07880121
0.044584997 0.03502789 -0.037738245 0.065367244 -0.10308881 0.16705316 -0.028952528 0.057376716
0.09074184 0.14632776 -0.18193844 0.17299195 -0.03322307 -0.16596715 0.0721976 0.051633906
-0.1919568 -0.13546543 0.16494995 0.036198743 0.04941468 0.020380685 -0.1350499 -0.18451364
0.17698114 -0.09030607 -0.009989247 0.17184028 -0.039798874 -0.15168348 0.025388686 -0.13234974
0.23771755 -0.05414391 0.20492005 0.12673056 -0.11401755 -0.039461866 -0.05382854 0.093084656
-0.056525692 0.15553218 -0.17634809 -0.1402694 0.18148218 -0.052582674 -0.00935599 0.065631375
-0.17371336 0.0993752 0.029614965 -0.044983264 0.18605988 0.12083273 -0.03289702 0.027388439
0.0056060706 -0.10813496 -0.060005996 0.14945257 0.039761417 0.16267547 0.10348714 -0.08118271
8.741178e-05 -0.16761684 -0.13074884 -0.016393473 0.084547505 0.02060752 0.027372207 -0.09951335
0.11114504 0.19202067 -0.04823605 0.029968629 0.1119232 -0.05288869 -0.005627111 0.060997017
0.04460908 -0.09334963 -0.040294018 0.10268686 0.014385317 0.17101021 0.11622207 -0.13404115
0.071334764 -0.08891176 -0.22902429 0.06313373 0.023255458 -0.052255254 -0.10581239 -0.17767523
-0.19977131 -0.0476923 0.0009708254 -0.009395037 0.07471541 -0.019878358 0.0025373308 0.03339602
0.020022096 0.025682766 0.09354067 0.011122109 -0.14178005 0.18780081 -0.0687857 -0.09210466
0.003470069 -0.027956216 -0.21080756 -0.08581143 -0.0009677928 -0.008297278 0.03805848 0.0046931375
0.0006679985 -0.1350475 0.031484988 -0.006120405 -0.016251095 0.10784945 -0.292944 0.41710845
-0.021546725 0.015203664 0.07536844 -0.0017467563 -0.14676446 0.08053861 -0.0009364889 -0.0233957
-0.0042390455 0.054571077 -0.011699276 0.15566006 -0.08940193 0.0751149 0.11196993 -0.014657321
-0.11480043 -0.054321017 -0.00939226 0.23656154 0.09158094 -0.029250007 -0.027035063 -0.039683804
-0.05097378 0.0057813725 -0.096129924 -0.18694071 0.047461 0.22665274 0.021211615 0.018292692
-0.012527797 -0.0073900125 0.07908429 -0.06166278 -0.13531658 0.109752804 0.14141947 -0.15649073
0.11735598 0.03985378 -0.11762677 0.05791526 -0.10042276 -0.010097969 -0.039668214 0.11518529
-0.10538881 -0.04920387 -0.1225557 -0.07319769 0.011373395 -0.19979835 0.10161009 0.052787784
0.017232673 -0.06013114 -0.029860102 0.05030667 -0.053883065 0.11647845 0.23479155 0.0682563

net.0.bias f4 [256]
00000000: 110b 103e 4171 1b3a 4b2d e23b 7553 a53c
00000010: fa4a 473c b6cc 6b3d 7308 a93d 160a c33c
00000020: cb3f a23d 8585 1ebe e2cd 03bd ad39 eebd
00000030: 04ad a03d 5841 213c dd7d 0e3e e43d a2bd
00000040: a374 b2bd ef55 f13d ed0f a8bc 5617 ec3d
00000050: c142 abbd 1608 033b f1fd 53bc 8d7c 4ebd
00000060: 89f1 d2bc 6e46 0fbe 1efa d7bd dabf da3d
00000070: d33b 0d3d 4d0f 17be 10e7 bdbd f8b4 b13d
00000080: 04bf 633d 9fcf 8abc abba 8abb d460 fcbd
00000090: 162d a63b 675e 14be 1b94 ebbd 56f1 cd3c
000000a0: fa02 643d f958 80bd 467d 0d3e 960e 15bd
000000b0: 9e63 823d 19f7 613d d5b0 873d 2914 2f3c
000000c0: f359 b53d 3be3 7a3c e038 a5bd 6a92 ddbc
000000d0: 8170 05bd c6e7 c1bd 8743 2e3d 0913 1f3d
000000e0: 3ec2 123e ef26 05be de83 4f3c 89e1 1b3e
000000f0: 7e5c 103e e510 adbc 713c 183e af56 1c3e
00000100: 68ba dfbc cd75 133e 4452 bdbc 5e58 a03d
00000110: 3c2c d7bd f6fd 9e3d bffd dd3d 24ba d8bd
00000120: 1a84 423d 3a39 08be fc37 f23d 658e 52bd
00000130: 9275 fc3d 6536 7d3d 15d8 033e c6be b13d
00000140: e082 1a3d 42a3 1dbe 626f 89bb 2d49 733d
00000150: 8602 bcbd 7868 e3bd 5e5e 0d3e b1c3 babd
00000160: b3eb dd3d f79e 883d bc2c 763c b75c b83d
00000170: c99a ddbc 273e 53bd 5df0 7f3d 42b8 66bd
00000180: 0345 ca3c d26d 013e 5ee2 063e 880e 1b3e
00000190: b573 9bbd 5a49 8cbb 53bf b13c dd94 fb3d
000001a0: a599 e8bd 24fe da3d 3f30 0a3e f5c3 ad3d
000001b0: 1b38 ec3d f632 7fbd f3e9 3d3d a884 763d
000001c0: 7180 48bd dbe0 9cbd c75e a3ba ff7e 5e3d
000001d0: 1282 c53d fe94 be3d 381e 033e 97d5 e0bd
000001e0: 85e1 bcbd 166c d5bd 6740 1f3e e7ed 9c3d
000001f0: 4f29 15be a2a7 88bd b123 a53d 72f4 143e
00000200: 3ebb ad3c 51da 7f3d 2c57 ebbd 4c20 fc3d
00000210: c68a c7bd 52e6 e13d 4c16 fabd b2b2 6d3d
00000220: 21aa e23d 5056 f13d 21ce b6bc 8c72 7bbd
00000230: b648 6e3d 4457 19be e2ba bf3d ff1f 02be
00000240: ffcd 1bbe ee72 a4bd bd24 a83d 9ef1 eabd
00000250: 7b29 a93d 101b 063d 4671 7cbd 4000 97bd
00000260: f75d 54bc a1c5 dfbc 0fbe 9c3d 4d0e 1ebc
00000270: 591b 84bd d436 a93d 2173 e03b cabf 163e
00000280: b774 11be b41f 77bd 5528 903d 03e6 033d
00000290: 580d 253d be8c 123c ea31 aa3c 58b1 f7bb
000002a0: d485 10bd 8dfd f53d cbe5 cb3d a0eb 12be
000002b0: 3fcb 173e 3f0c a6bd 613b bc3d 39de 183d
000002c0: 1045 fc3d fdd0 cdbd a7f4 e2bd 3c45 063e
000002d0: 2c23 a33d 5321 b3bd ca53 003d 2311 683d
000002e0: d45d ff3d 7838 f4bd 0a4f 2e3d bdfd ca3d
000002f0: 82ca d8bd ebb1 873d 539f 123e 6810 b33d
00000300: 8cf1 dcbd bd63 bc3d 6924 80bd 6c7a 94bd
00000310: fa9c 8abd d620 0dbe 7e28 08be 3e34 c4bc
00000320: eecd 0e3e 84f5 9fbd 083b 01be fc42 a93d
00000330: d84b ddbd 5fbe f63d 2aee 87bc e801 9f3d
00000340: 9826 1e3e 614a dc3d cf25 5cbd 1fda 7fbd
00000350: e90e a1bd 3a44 0fbe 8fa7 f0bd 564c 853c
00000360: 9972 2bbd 87c9 9c3c 4ba0 163e 4ead 32bc
00000370: 0b00 1e3e 8ad7 8abd d14b d83d f040 ccbd
00000380: 1678 7c3d 16fc e1bd db8d 933c 3353 d43d
00000390: 965a a6bd 4312 d73d dc89 ce3d 6b96 8bbc
000003a0: b7ee aa3d 734c 7a3d a373 16be 1014 80bd
000003b0: d293 dcbd e287 e43d a1eb fe3c d175 103e
000003c0: c564 e5bd 2c77 8dbd 5e30 8a3d af75 103e
000003d0: 6e65 8fbd 9464 f73c 9aa7 bebd 19ba 143c
000003e0: caba 003e e079 59bd deca 213b 3078 c3bd
000003f0: 3b98 683d 58d3 12be ca9a 61bd e8cd 11bc
0.14066721 0.0005929657 0.006902372 0.020181397 0.012163872 0.057568274 0.08253565 0.02380852
0.07922324 -0.15480621 -0.032178767 -0.116320945 0.078455 0.009842239 0.139152 -0.07921961
-0.08713653 0.11783969 -0.020515407 0.115278885 -0.08362342 0.0019993833 -0.012938962 -0.05041175
-0.025749939 -0.1399171 -0.10545753 0.10681124 0.03448088 -0.1475193 -0.09272587 0.08677095
0.05560209 -0.016944705 -0.0042336783 -0.12323156 0.0050712926 -0.14489137 -0.11502858 0.025139492
0.0556669 -0.0626697 0.1381732 -0.036390863 0.06366657 0.05516729 0.06625525 0.010685959
0.08855047 0.015312965 -0.08067489 -0.027047355 -0.032577995 -0.094680354 0.042544868 0.038836513
0.1433191 -0.13003133 0.012665717 0.15222754 0.14097783 -0.02112622 0.14866807 0.15267442
-0.027310565 0.14400406 -0.023110516 0.07829355 -0.10506484 0.07763283 0.10839414 -0.105823785
0.047489263 -0.1330308 0.118270844 -0.05140533 0.12327112 0.061819453 0.12875398 0.08678965
0.03772247 -0.15394309 -0.004194186 0.059395958 -0.09180169 -0.1110391 0.1380553 -0.091193564
0.10835972 0.06670945 0.015025314 0.09002059 -0.027051346 -0.051572945 0.062485088 -0.056328066
0.02469111 0.1263955 0.1317229 0.15142262 -0.07590429 -0.004281205 0.021697676 0.12284253
-0.1135743 0.10693005 0.13494967 0.084846415 0.11534139 -0.06230446 0.04636569 0.060185105
-0.048950616 -0.07660075 -0.0012464159 0.05432033 0.096439496 0.09305762 0.12804496 -0.10978239
-0.09222702 -0.104210064 0.15551911 0.07662564 -0.14566539 -0.066725984 0.08063448 0.14546373
0.021207448 0.062464062 -0.11491236 0.12310848 -0.09743266 0.11030258 -0.12211284 0.058031745
0.11067606 0.11784041 -0.022315087 -0.061388537 0.05817481 -0.14974695 0.09361817 -0.12707518
-0.152153 -0.080297336 0.08210132 -0.11471866 0.08259865 0.032740653 -0.061631463 -0.073730946
-0.012961856 -0.027315916 0.07653438 -0.009646964 -0.06450529 0.08262411 0.006849662 0.14721599
-0.1420468 -0.06033297 0.07038943 0.03220178 0.04029593 0.008944688 0.020775754 -0.007558983
-0.03528388 0.120112516 0.09955939 -0.14347696 0.14823626 -0.081078045 0.09191013 0.037321303
0.1231786 -0.10049627 -0.1108182 0.13112348 0.07965693 -0.087465905 0.031329907 0.056656968
0.12469068 -0.11924833 0.042555846 0.09911678 -0.105855 0.06625732 0.1431859 0.087433636
-0.10788259 0.09198711 -0.06256945 -0.072499126 -0.06768222 -0.13782057 -0.13296697 -0.023950692
0.13945743 -0.078105 -0.12620175 0.082647294 -0.10805482 0.12048029 -0.016593058 0.077640355
0.1544441 0.10756374 -0.053746995 -0.062463876 -0.07864172 -0.1399087 -0.11750709 0.016271751
-0.041857336 0.019139064 0.14709584 -0.010905577 0.15429704 -0.06779392 0.10561336 -0.09973323
0.06163796 -0.1103441 0.018011978 0.103674315 -0.08122747 0.1050153 0.10084888 -0.017039498
0.083463125 0.061108064 -0.1469255 -0.062538266 -0.10770382 0.1115873 0.031118216 0.14107443
-0.11200861 -0.06907496 0.067475066 0.14107393 -0.07001768 0.030199327 -0.09309311 0.009077572
0.12571254 -0.053094745 0.0024687569 -0.09544408 0.056785803 -0.14338434 -0.05507926 -0.0088991895

net.1.weight f4 [256]
00000000: 458a 7f3f 131c 723f f478 6a3f e544 773f
00000010: 7ba8 6d3f 4328 843f ba96 833f 04e5 6f3f
00000020: 2883 723f ee67 6f3f 4b7d 6e3f b4c4 693f
00000030: ec1f 773f 142a 6b3f 34db 813f abfc 6e3f
00000040: 1123 773f c404 833f bd78 873f 0a37 703f
00000050: 2d38 573f f362 6d3f dbce 773f 63e4 813f
00000060: 8384 783f 9622 833f 2457 753f 5b86 783f
00000070: 8bf9 6c3f 4f67 773f 6823 7a3f 5243 6f3f
00000080: 2c93 713f 0b07 793f 9235 7b3f 6ef0 783f
00000090: f773 773f d8cb 6b3f b6dc 6a3f e3e4 883f
000000a0: d7c5 713f 42bf 6c3f 0a4e 763f c486 7c3f
000000b0: a41e 823f e4ca 723f 2433 763f c5b1 783f
000000c0: 1c5e 843f db25 7c3f d253 833f 0fd0 6f3f
000000d0: 1b8a 793f 8a9f 623f c77d 563f a2c5 7e3f
000000e0: b3a7 6a3f 4563 793f 2fb0 813f 78c0 763f
000000f0: b922 7f3f 265a 853f 990e 763f 7268 793f
00000100: 7329 893f c0c6 6a3f 7f2c 793f afe8 713f
00000110: 3951 7e3f 997d 743f 3203 5e3f f000 7c3f
00000120: 5434 813f 7fba 793f 49f6 803f 248d 7a3f
00000130: e992 803f 3955 823f 394f 843f 869c 703f
00000140: 15bb 863f 7d6d 803f f814 7a3f 560b 743f
00000150: df9c 723f a215 803f a57e 603f 490b 703f
00000160: a78f 673f 4a43 7a3f 86d8 6e3f c3b9 7e3f
00000170: 56cb 833f e7f6 813f 9456 823f a8c1 7c3f
00000180: a717 6c3f 354c 7f3f 732f 663f bb88 693f
00000190: 8c90 803f 2867 763f 63fa 7a3f 6257 6a3f
000001a0: 4687 6a3f 5697 713f d4bb 793f 7245 763f
000001b0: bd96 783f e964 7b3f fda5 6c3f 08e6 7e3f
000001c0: 84f1 6b3f 2de1 733f caf4 693f 30a6 783f
000001d0: e10c 703f fe69 743f 2f6d 793f 7ea4 7e3f
000001e0: 1dfb 5d3f 1662 823f 3d59 673f a5e6 793f
000001f0: 52d8 813f 2ab7 753f a1eb 7c3f 7c1b 763f
00000200: 2e02 793f 3354 833f 9d66 723f 1afd 823f
00000210: d191 743f 601d 7d3f 9118 793f 8d3f 6d3f
00000220: a226 763f f34a 613f 57d8 703f 44f2 823f
00000230: 2ec0 5c3f d3af 663f a9bf 6f3f e433 813f
00000240: 7753 773f f013 793f 1fc8 693f e5c3 723f
00000250: f49d 873f 3737 7f3f fb47 6b3f 5dcd 893f
00000260: 2376 753f 6c94 793f d495 6a3f e0f6 783f
00000270: caa8 7d3f 4a49 693f 0bbb 7f3f 2257 683f
00000280: dbda 763f a24e 6d3f c1aa 733f b37f 803f
00000290: 8bb3 823f be08 5f3f b41d 6b3f 8614 743f
000002a0: 00e3 803f 28e0 5c3f 643e 6c3f 5485 773f
000002b0: f2ed 753f 5bd8 743f 57ef 843f 0b14 823f
000002c0: 5492 6f3f 06e9 6c3f e1d8 733f 388c 743f
000002d0: 666d 6f3f 6f1a 703f 4f4f 763f 66e8 6d3f
000002e0: 76a5 743f c08d 7c3f 0356 773f 9630 6e3f
000002f0: acbc 7e3f b184 6d3f 9c6f 693f 7aae 773f
00000300: e373 833f f5f1 7d3f a420 813f a767 663f
00000310: 1270 7d3f 41b0 853f a967 7d3f 549b 823f
00000320: f7d4 753f 3e80 733f d2fc 763f b761 833f
00000330: 9ddc 793f 2a15 7d3f ec6f 8a3f 27bb 773f
00000340: 5651 7c3f 4a20 673f 8b8f 733f 88c1 743f
00000350: 2a95 833f 6988 773f f934 6a3f 5e87 723f
00000360: 9c25 723f 6a25 6b3f f6ca 683f 3bf9 623f
00000370: 62e3 663f 2258 743f 8975 7c3f a375 783f
00000380: 6d4d 7a3f ae45 753f bc53 823f c7a5 7b3f
00000390: c0cf 6b3f 64d3 833f 6f79 7c3f 209b 703f
000003a0: c6d7 723f 3302 6f3f 308e 7d3f 1745 803f
000003b0: e8e4 743f 3dc0 7b3f b20b 6d3f d5a2 763f
000003c0: 8283 6b3f acdd 713f 91e7 7d3f c0d7 733f
000003d0: 4cf3 773f dcf3 7a3f 7cee 7d3f 0de2 653f
000003e0: 8f62 883f acbd 7d3f bf54 773f 8f68 7d3f
000003f0: 7ee3 733f 6944 813f 5d63 793f 53f2 863f
0.9982036 0.9457409 0.9159081 0.965895 0.92835206 1.0324787 1.0280373 0.93708825
0.9473138 0.9351796 0.9315993 0.9131577 0.96533084 0.9186108 1.014502 0.9335429
0.9653788 1.0235829 1.0583721 0.9383398 0.8407009 0.9272911 0.9680001 1.0147823
0.97077197 1.024493 0.9583609 0.9708001 0.9256827 0.9664201 0.97710276 0.934621
0.9436519 0.9727637 0.98128617 0.97241867 0.96661323 0.92107916 0.9174303 1.0694851
0.94442505 0.92479336 0.9621283 0.98643136 1.0165601 0.94840837 0.96171784 0.97146255
1.034122 0.9849526 1.0259955 0.9367685 0.9747636 0.8852469 0.8378567 0.99520314
0.9166214 0.974171 1.0131892 0.96387434 0.9966236 1.0418136 0.96116024 0.97424996
1.0715774 0.9170952 0.9733352 0.9449567 0.99342686 0.95504147 0.86723626 0.9843893
1.0094094 0.97550195 1.007516 0.97871614 1.0044833 1.0182258 1.0336677 0.93988836
1.0525843 1.0033413 0.97688246 0.953298 0.94770616 1.0006602 0.87693244 0.9376722
0.9045357 0.97758925 0.9329914 0.995022 1.0296428 1.0153474 1.0182672 0.98732996
0.9222359 0.9972566 0.8991615 0.9122426 1.0044112 0.96251154 0.9803831 0.91539586
0.9161266 0.94371545 0.9755223 0.96199715 0.9710501 0.9820085 0.9244078 0.9956975
0.921654 0.95265466 0.91389143 0.9712858 0.9376965 0.9547423 0.97432226 0.99469745
0.86711293 1.0186183 0.9037054 0.9761756 1.0144141 0.9598261 0.9879704 0.9613569
0.9726895 1.026007 0.94687825 1.023349 0.95535 0.9887295 0.9730311 0.92675096
0.961527 0.8800499 0.9408011 1.0230184 0.8623074 0.90112036 0.93651825 1.0093961
0.9661173 0.9729605 0.91320986 0.9483016 1.0595078 0.99693626 0.9190671 1.0765797
0.9588339 0.974921 0.9163487 0.972517 0.99085677 0.91127455 0.9989478 0.90757954
0.96427697 0.9269811 0.95182425 1.0038971 1.0211042 0.87122715 0.918422 0.95343816
1.0069275 0.86279535 0.922827 0.9668782 0.960662 0.9564263 1.0385541 1.0162367
0.93582654 0.92543066 0.95252806 0.95526457 0.93526304 0.93790334 0.96214765 0.92932737
0.95564973 0.98653793 0.9661562 0.93042886 0.9950664 0.92780596 0.9118593 0.96750605
1.0269741 0.9919732 1.0088086 0.9000191 0.9899913 1.0444413 0.989863 1.0203652
0.96028084 0.9511756 0.96479523 1.0264195 0.97602254 0.9886042 1.0815406 0.96769947
0.9856161 0.90283644 0.95140904 0.95607805 1.0279896 0.9669252 0.9148708 0.94737804
0.9458864 0.91853964 0.90934694 0.88661546 0.9019071 0.9544698 0.98616844 0.970545
0.9777439 0.9580945 1.0181804 0.9829983 0.92113876 1.0298886 0.9862279 0.939867
0.94860494 0.9336273 0.99045086 1.0021085 0.95661783 0.9834021 0.9259597 0.9634221
0.9199754 0.9447887 0.9918147 0.95251083 0.96855617 0.9802835 0.99192023 0.8979805
1.0655078 0.9911754 0.9661369 0.9898767 0.95269 1.0099002 0.9741724 1.0542701

net.1.bias f4 [256]
00000000: 60cb 66be 80be 89be 519c 99be ff6b 8ebe
00000010: 520a adbe dd77 9abe 7509 90be 4a4b 86be
00000020: 71f7 8abe 837e acbe d73d 11be c966 2abe
00000030: 73f3 98be 9fb5 8cbe 37ef 33be 79ac 8bbe
00000040: 3f55 86be 9656 5abe 972d 8ebe b104 3abe
00000050: 283e 50be d6de 6bbe b894 6cbe 1579 94be
00000060: e469 7ebe 90a9 5dbe 24a8 81be b084 67be
00000070: 12cd 44be 08dd a2be ecb9 53be 8c7b 9bbe
00000080: 7043 8dbe 9821 a2be 8ad6 8cbe bf8c 62be
00000090: e308 48be 7b74 a0be ab41 88be 1db4 82be
000000a0: ffb3 a7be 975d 5ebe 36ce 90be 8e4e b8be
000000b0: 8e02 8ebe 3a95 7dbe 1ba9 81be 1cef 36be
000000c0: 252a 4bbe e4fa 80be 4635 36be 7396 85be
000000d0: 1a96 a1be 89c2 9ebe ae66 33be 0c37 1bbe
000000e0: 41f6 87be c926 b6bd 53c2 97be 76f0 99be
000000f0: 96c5 81be 9cb8 34be 2955 0bbe ea56 7abe
00000100: d4a5 83be 773d 5bbe bb6d 9ebe f350 5fbe
00000110: 77ca a7be 762a 7ebe ff17 7ebe 6e5b 65be
00000120: af26 5ebe 754d 6cbe a564 a3be 0a23 a0be
00000130: 681a 80be 92b0 99be cef6 83be fa42 4cbe
00000140: aeaa 53be d504 9ebe 2241 71be 40ee 40be
00000150: ecb1 9ebe 94bb 11be 570b 76be 98b0 dbbd
00000160: 79c7 33be f74a 28be c901 58be c282 9abe
00000170: 034b 8abe b70a 8fbe 13ab 5fbe e14a aabe
00000180: ae97 55be dfdb 8abe 738d a9be 0ada afbe
00000190: d94b 92be 63eb 78be 5ca2 4cbe 475c 8fbe
000001a0: 9d0d 9cbe cc35 63be 1eb1 86be 4fec b4bd
000001b0: c595 8bbe 5b0c 99be fed9 c5be 9373 b6be
000001c0: 5124 62be ccc9 8cbe b256 51be b614 4bbe
000001d0: 4351 9abe 42b9 bfbe 3ee0 6fbe 0081 19be
000001e0: 6aa3 20be d33d 98be 9ff5 8fbe 8351 79be
000001f0: f175 67be 5d81 3fbe fe8e b0be adfe 7ebe
00000200: 2c74 e4be 0e0c 9dbe 9510 03be ba41 4ebe
00000210: 8b3f 7fbe f28b 50be 63ca 82be 4db0 8cbe
00000220: f25d 7fbe 3f2c acbe a8ce 79be 1d3b 80be
00000230: ff1e 4bbe 5209 82be 8d73 64be faed 74be
00000240: 992b 8bbe cf9b 76be 6ae4 8bbe 7c53 93be
00000250: df64 87be 3c51 5ebe 6102 5ebe 2e75 a0be
00000260: 3f2e a7be 1185 7cbe 4f19 38be 1718 9fbe
00000270: f3b1 6abe 3398 b1be 35d4 90be f9a1 a7be
00000280: 0d3a 33be 9dd7 a6be 03ca b0be 3abd 7bbe
00000290: bb12 8cbe 3aac aabe a7a4 7bbe 75d6 86be
000002a0: 42f0 8abe cbb1 b2be 8532 98bc edb5 4abe
000002b0: 8651 50be ec12 98be 848c 9cbe 6900 64be
000002c0: ccc2 90be 51af abbe 29fc 97be de41 a0be
000002d0: 8696 9abe d632 23be 234f 8cbe 6a0d 4bbe
000002e0: 0085 54be e518 bcbe 7e1a 96be 7bad a9be
000002f0: e777 88be d414 84be 77a2 44be 129c 88be
00000300: b18d a0be 1aef b4be a511 8dbe 3a6e 91be
00000310: 1d03 7abe a4ea a2be f670 8fbe ab47 91be
00000320: 44ea 4bbe e3c6 36be 6db2 70be 840b 5ebe
00000330: 98e6 9fbe 0e6b 88be 0b3a c8be 045e 9fbe
00000340: 6e56 70be 7464 99be 2e53 79be dd1a 28be
00000350: 5bd8 71be 36ba bbbe 051e 65be 9f0e 6dbe
00000360: c1ea 31be 433e 8bbe e400 5abe 848d 8abe
00000370: 8d4f 9fbe 2bbd 52be 93f8 8abe 9337 aabe
00000380: 1b05 b1be 5f1f 55be c37b a1be 9fbe 6ebe
00000390: d350 88be 516c 8cbe a9fe 83be bfea 8cbe
000003a0: 3125 50be 8e99 38be 4b95 2dbe f117 7abe
000003b0: 829b bcbe 39bc 8abe 011c 4ebe fb8b 9abe
000003c0: 82c0 5bbe cedc 6ebe fb87 aabe f33a aabe
000003d0: 4679 80be 2610 aabe f977 adbe a475 99be
000003e0: 5418 3abe 2d00 31be 620c 82be 17e8 81be
000003f0: 1aba 4ebe 6859 b0be a639 a9be ffa8 21be
-0.22538519 -0.26903152 -0.30002072 -0.2781677 -0.33796936 -0.30169573 -0.28132215 -0.26229316
-0.27141908 -0.3369027 -0.14183746 -0.16640772 -0.29873237 -0.27482316 -0.17571722 -0.27280024
-0.26236913 -0.21322092 -0.27769157 -0.18165852 -0.2033621 -0.23034224 -0.23103607 -0.28998628
-0.24845082 -0.21646714 -0.25323594 -0.2260921 -0.19218853 -0.31809258 -0.20676392 -0.30367696
-0.27590513 -0.31666255 -0.2750743 -0.22124003 -0.1953464 -0.31338868 -0.266126 -0.2552804
-0.32754514 -0.21715389 -0.28282326 -0.35997432 -0.27736324 -0.24763957 -0.2532433 -0.1786465
-0.19840296 -0.25191414 -0.1779376 -0.26091346 -0.3155983 -0.31007794 -0.17519638 -0.15157717
-0.26555064 -0.088941164 -0.29640445 -0.3006627 -0.2534606 -0.17648548 -0.13606705 -0.24447218
-0.25712454 -0.21410166 -0.30943093 -0.21808223 -0.32771656 -0.24820885 -0.24813841 -0.22398159
-0.21694444 -0.23076423 -0.31912723 -0.31276733 -0.25020146 -0.30017525 -0.25774235 -0.19947425
-0.20670578 -0.30863062 -0.23560002 -0.18840885 -0.3099512 -0.14231712 -0.24027763 -0.10727042
-0.17556562 -0.16434847 -0.21094431 -0.30177885 -0.27010354 -0.27937862 -0.21842603 -0.33260253
-0.20858642 -0.27120873 -0.3311573 -0.34346038 -0.28573492 -0.24308543 -0.1998381 -0.2800009
-0.30479136 -0.2218849 -0.26307005 -0.08834135 -0.27262703 -0.2989224 -0.38642877 -0.3563505
-0.22084166 -0.2749771 -0.20443228 -0.1983212 -0.30140123 -0.37446028 -0.23425385 -0.14990616
-0.15687338 -0.29734668 -0.28117082 -0.243475 -0.22603585 -0.18701692 -0.34484094 -0.24901839
-0.44619882 -0.3067326 -0.12799294 -0.2014226 -0.24926583 -0.20365885 -0.25545034 -0.27478257
-0.24938181 -0.33627507 -0.2439524 -0.250451 -0.19836043 -0.25397736 -0.22309704 -0.23918906
-0.271817 -0.24082874 -0.27322704 -0.2877463 -0.26444146 -0.21710676 -0.21680595 -0.313394
-0.3265247 -0.24660136 -0.17978404 -0.31073067 -0.22919445 -0.3468643 -0.282869 -0.32740763
-0.17502613 -0.32586375 -0.34529123 -0.24583903 -0.2735804 -0.33334523 -0.24574529 -0.26335493
-0.27136427 -0.3490127 -0.018578777 -0.19795962 -0.20343599 -0.29701936 -0.30575955 -0.22265781
-0.28273618 -0.33532193 -0.2968457 -0.31300253 -0.30192965 -0.15937361 -0.27404127 -0.19829336
-0.2075386 -0.36737743 -0.29317087 -0.33140168 -0.26653978 -0.2579714 -0.192026 -0.26681572
-0.31358102 -0.3533867 -0.27552524 -0.2840441 -0.2441525 -0.31819642 -0.2801587 -0.2837499
-0.19913584 -0.17849307 -0.23505564 -0.2168408 -0.31230617 -0.26644176 -0.39106783 -0.31126416
-0.2347047 -0.29959452 -0.24348137 -0.16416498 -0.2361769 -0.36665505 -0.22374733 -0.23150109
-0.17374708 -0.2719594 -0.21289402 -0.27061093 -0.3111538 -0.20579974 -0.27142772 -0.33245525
-0.34574208 -0.20812748 -0.31539735 -0.23314904 -0.26624164 -0.2742639 -0.25780228 -0.27522847
-0.20326687 -0.18027326 -0.16951482 -0.24423195 -0.36837393 -0.27096727 -0.2012787 -0.30184922
-0.21460155 -0.23326418 -0.3330687 -0.332481 -0.25092524 -0.33215445 -0.33880594 -0.29972565
-0.18173343 -0.17285223 -0.25400072 -0.25372383 -0.2018818 -0.34443212 -0.33051795 -0.15787123

net.1.running_mean f4 [256]
00000000: a5de 243e eaa2 72bc ceb5 70bc 8c84 ca3c
00000010: 2a6c 633c 278c 5a3d aa37 b33d ee15 ed3c
00000020: 1759 853d 7f02 25be d897 1fbd 677b 05be
00000030: 119f 923d 17a4 2e3c ee94 ff3d 33ad a3bd
00000040: 0c17 b0bd 5167 033e 85d8 bebb a4b2 c33d
00000050: c4d1 b9bd 8e0e 4b3b 3223 05bd 9cc9 28bd
00000060: ac5a 18bd b83d 0bbe ac7b a5bd f6c3 ca3d
00000070: 2783 543d 7b43 0ebe 0701 a0bd 6258 9f3d
00000080: 9e78 863d 66bb 0dbb 1268 88bc 6d8e e7bd
00000090: 4c7c 1cbb 7a6c 01be f536 ddbd 29fc 6c3c
000000a0: 0835 2c3d 52c9 8abd 979d 043e 696b e9bc
000000b0: fda8 993d f6c1 833d e50f 773d 0553 1cbc
000000c0: c45f b03d 9635 823c 5614 99bd 82bb 30bc
000000d0: b142 11bd 4bfe afbd 43c3 443d a1f7 0d3d
000000e0: 164c 1c3e 39ed 14be 97aa 263c f5ab 253e
000000f0: 7dd8 163e c2fd c9bc d3e9 1a3e bded 1e3e
00000100: 7bf0 bdbc 5bd3 0e3e 2af1 94bc a151 ab3d
00000110: 3a06 e7bd e1c8 7c3d ad9b dd3d c8a4 d9bd
00000120: 6af2 373d c96f 0bbe eebf fd3d f6c2 5fbd
00000130: e9d5 013e ab5a 823d 6d01 043e e8d2 a73d
00000140: f697 373d 02d9 1abe 871b f73b 434f 923d
00000150: c762 c7bd cf8f edbd 961a 123e 695f a0bd
00000160: 7939 d93d cae5 893d 2660 913c 1c28 c83d
00000170: 5e51 1cbd 0868 29bd c24e 8d3d da1c 93bd
00000180: 5000 763c c1c8 153e c525 083e 2b1f 273e
00000190: d5e1 9cbd cde0 76bb c31c 94b9 64c9 e23d
000001a0: b106 d5bd d1a0 aa3d 6c7a 023e b82b aa3d
000001b0: 52b2 c13d 7cf3 80bd 61d1 413d 4c76 803d
000001c0: f8b0 31bd ce54 9abd 0a96 663c 0c58 833d
000001d0: 2e6d b83d e2bb b03d 8115 0c3e 2386 eebd
000001e0: 2633 9fbd dc57 c8bd 8ef0 213e 4c5c ad3d
000001f0: 27c1 19be bc87 87bd f75b af3d 80a8 1e3e
00000200: ffe8 063c 0537 723d 205b ebbd 7576 0f3e
00000210: dd88 ccbd c94a f73d d91a e4bd a45e 5d3d
00000220: 9796 ea3d f4d9 023e ba2f 9fbc 012d 58bd
00000230: dbc5 5f3d 2e7a 10be f726 c53d be90 10be
00000240: d210 15be 0bc0 bfbd a416 a43d faa4 dabd
00000250: a0c6 aa3d 239c 0a3d c268 96bd 579c 90bd
00000260: 527a 66bc 321c 84bc f674 a33d bb2b 84bc
00000270: dce8 3bbd 55e4 bd3d bbc7 c2bc c0ee 073e
00000280: 8307 10be 79aa 55bd c22c a83d 46b0 343d
00000290: 17f2 223d e3f7 6d3c f3f4 da3c 2539 44bb
000002a0: 3db4 84bd dbb6 fa3d f503 c23d c609 16be
000002b0: 1fd2 243e 37bf 8dbd 51ab b03d 80f9 1c3d
000002c0: 921b e33d 877b d2bd 5a5b e1bd 126d 0a3e
000002d0: fd66 8e3d 8ef9 9abd 1ca3 213d 8915 f73c
000002e0: 89f5 f93d 093e febd c0d3 2f3d cb70 be3d
000002f0: e827 cbbd c7c4 783d 6ccc 0a3e 3dd6 be3d
00000300: e4c3 e2bd b039 c23d f5c6 acbd 1b47 aebd
00000310: f173 9abd 2da7 01be fb4a 0abe bf5c 47bc
00000320: 78fe 0d3e aaa3 a6bd 72ba fbbd 044b 983d
00000330: b27a bdbd b204 ec3d 6095 aebc 340f 963d
00000340: 2786 1b3e 3bc7 f53d 79cc 48bd 03a3 abbd
00000350: b834 cbbd f2be 14be d0b1 f4bd c205 363c
00000360: b960 80bd 3912 db3c 6e08 0f3e a36c 08bc
00000370: a977 2c3e 3264 a8bd 3db0 d13d f1f6 e0bd
00000380: 21fb 703d 588b b8bd 726f e83a abab ed3d
00000390: 09be a5bd 8a3e cd3d 83a3 b03d 0fb7 9dbc
000003a0: 4d71 d73d cfb7 553d 762a 0bbe 707c 67bd
000003b0: 4c9a eabd 64d2 003e 1f0d 1e3d 4e14 1d3e
000003c0: 7098 edbd d5a4 d1bd 0cbe 8c3d 6be7 173e
000003d0: 7cd4 7abd 8d6b 8d3c be1d aebd 29a4 0db9
000003e0: ff3d 043e 1ce0 4fbd d303 383c b0a1 90bd
000003f0: 0dd9 8e3d f3c1 16be 9b04 3dbd ccfd 48bc
0.16100557 -0.01480935 -0.014691783 0.024721406 0.013880769 0.053356316 0.087508515 0.028941121
0.06511133 -0.16114233 -0.03896317 -0.13035356 0.07159246 0.010659239 0.12479578 -0.079920195
-0.08598146 0.12832381 -0.005824151 0.09555557 -0.09073213 0.0030984017 -0.032504268 -0.041207895
-0.037195846 -0.13597763 -0.08080229 0.09900658 0.05188289 -0.1389293 -0.07812696 0.077805296
0.06565975 -0.002162659 -0.016651187 -0.113064624 -0.0023877798 -0.12639037 -0.10801498 0.014464417
0.042042762 -0.0677668 0.12950741 -0.0284936 0.07502935 0.064334795 0.060317893 -0.009541278
0.08612016 0.015894692 -0.07474582 -0.010786893 -0.035463993 -0.085934244 0.04803778 0.034659985
0.152634 -0.14543618 0.010172508 0.16178878 0.14731021 -0.024657134 0.1512826 0.15520377
-0.02318596 0.13947813 -0.018181402 0.08365179 -0.112804845 0.06171501 0.108207084 -0.10627133
0.04490892 -0.13616861 0.12390123 -0.05462929 0.12679256 0.0636495 0.12891169 0.08194524
0.044822656 -0.15121844 0.0075411233 0.07144024 -0.09735637 -0.11599695 0.14267954 -0.07830698
0.10606665 0.06733282 0.017746042 0.09773275 -0.038163535 -0.041358978 0.068997875 -0.071832374
0.015014723 0.14627363 0.13295658 0.16320483 -0.076602615 -0.0037670613 -0.0002825019 0.110735685
-0.10401667 0.083314545 0.12742013 0.0830912 0.0945784 -0.06296441 0.04731882 0.06272563
-0.04338166 -0.075357065 0.014073858 0.06413278 0.090051994 0.08629586 0.13680078 -0.11646678
-0.07773428 -0.09782383 0.1581442 0.0846487 -0.15015088 -0.06617686 0.08562463 0.15493965
0.008234262 0.059134502 -0.1149199 0.14010032 -0.09987042 0.12074811 -0.11137933 0.054045334
0.11454504 0.12778455 -0.019431937 -0.052777294 0.05463205 -0.14109108 0.096265726 -0.14117715
-0.14557198 -0.09362801 0.08012131 -0.10675998 0.08338666 0.03384031 -0.073442 -0.070610695
-0.014067249 -0.016126726 0.07981293 -0.016134134 -0.04587637 0.092720665 -0.02377688 0.1327467
-0.14065365 -0.05216453 0.08211662 0.04411342 0.039781656 0.014524433 0.026728129 -0.0029941287
-0.0647969 0.12241908 0.09473411 -0.14652166 0.1609578 -0.06921237 0.08626426 0.03832388
0.11089243 -0.10277467 -0.11003752 0.1351817 0.06953237 -0.0756713 0.039462194 0.030161636
0.12205035 -0.12414176 0.04292655 0.09298857 -0.09919721 0.060734536 0.13554543 0.093182065
-0.110725194 0.09483659 -0.084363855 -0.08509656 -0.07541645 -0.12661429 -0.13505165 -0.0121681085
0.13866603 -0.08136685 -0.12291421 0.07436183 -0.09251918 0.11524333 -0.021311462 0.073271185
0.15187894 0.12000891 -0.049023125 -0.083807014 -0.09922165 -0.14525965 -0.119479775 0.011109771
-0.062684484 0.026742088 0.1396806 -0.008326682 0.16842522 -0.08222236 0.10238693 -0.109846
0.058833245 -0.09010953 0.0017733409 0.11605009 -0.08092887 0.10021694 0.086249374 -0.019252328
0.10519657 0.052177247 -0.13590416 -0.056515157 -0.11455211 0.12580258 0.038586732 0.15339777
-0.11601341 -0.10236517 0.06872186 0.14834373 -0.061237797 0.017263198 -0.085017666 -0.00013507962
0.12914275 -0.050750837 0.0112313805 -0.070620894 0.06974993 -0.14722423 -0.04614697 -0.012267541

net.1.running_var f4 [256]
00000000: c60c 063f d354 a93e 0981 d33e 6586 d03e
00000010: b60d ec3e eeca b83e 0e5b 9e3e 67be c93e
00000020: 72fe 863e 48ec 013f 6e99 a33e 6e81 d13e
00000030: 92d6 ad3e 263b f73e 176e 783e b078 bf3e
00000040: c0d5 b83e f020 c93e 3865 b23e 2777 823e
00000050: b82d af3e fc81 653e 3e6e a63e 1560 553e
00000060: ed6e 8a3e 6cde 713e 210a bf3e 9449 a93e
00000070: 99c1 ba3e 8c5e fe3e 0ced e93e b802 d83e
00000080: 353a de3e 6da0 d43e db0b c83e 48e5 d03e
00000090: 02a3 ec3e 6bb3 f73e 8908 a23e 39ef 8d3e
000000a0: d39e d53e f50c 9c3e 9167 793e c88c 6b3e
000000b0: 0a86 e33e 1e22 b13e 74dc c03e f8dd b33e
000000c0: a299 c13e 4dbd c33e d61a dc3e 3c75 063f
000000d0: d361 a13e a632 d33e d8ed cd3e a208 cd3e
000000e0: a571 bc3e 686a 9a3e ccf0 c23e c569 a73e
000000f0: 16e8 d33e a920 133f d04e a43e 33b2 8e3e
00000100: 1c8c 6e3f e19e ad3e 53d3 8f3e 7131 ab3e
00000110: 5fd6 833e c88b af3e 6d20 c43e c355 9e3e
00000120: 8ee5 8d3e b0fe 843e 0dbf a03e ddd3 893e
00000130: eae4 743e 15b5 6c3e 95fa 9a3e 20d1 b73e
00000140: f65a 573e 5ce5 5f3e b17a ed3e 7589 653e
00000150: dd21 a03e b904 963e f950 b13e 22b7 b43e
00000160: 1c9b ae3e 9efd 873e 5e91 dd3e 4287 863e
00000170: d981 a53e 2595 793e fa43 db3e 2ba4 993e
00000180: 7acc b93e 23a7 9f3e 3c46 903e bbe0 d53e
00000190: 5d6e 7f3e 003b 993e b86b 833e 5356 ca3e
000001a0: b389 ae3e 8be2 fe3e c7d8 8a3e 78cf 8e3e
000001b0: 8f03 d43e fcca bf3e a2bb 913e bacb 833e
000001c0: f5bc a73e ab9a b53e d43c a03e 9343 b23e
000001d0: 3fdf be3e 417e 7d3e e359 aa3e ac62 cd3e
000001e0: 9c77 b33e e501 ae3e aa89 a23e 3799 943e
000001f0: abd7 963e 8a22 5b3e 4442 0b3f 7e4b ef3e
00000200: f298 003f 933c c33e d93c a43e 563e cf3e
00000210: 6c70 cb3e 91db 483e 3ec5 d03e 8c52 9d3e
00000220: fcc0 523e 3ac6 be3e f9a0 ae3e b136 e33e
00000230: 89ae e53e 7ea6 8f3e 74d0 023f 04c7 863e
00000240: 0d32 893e cd42 a53e 6a57 bf3e dbe3 a33e
00000250: ff2c c83e e117 d63e 8d43 8d3e afb8 863e
00000260: bd39 0d3f 33b4 a93e 9ff7 db3e c555 a43e
00000270: cf34 b03e 87bc 8f3e 3c88 ac3e c06c c03e
00000280: 4fbe 913e 8403 c53e 5f1c c53e d3bb 9a3e
00000290: 3f91 a23e 8b04 ca3e 665d ca3e f90f ac3e
000002a0: f1bb 8f3e d207 5f3f c43a f53e 4a63 cc3e
000002b0: 300a 993e b6fc 8a3e d4a1 453e fc39 a93e
000002c0: 9f11 cc3e 38bc a83e a566 ff3e e70e bb3e
000002d0: 568d f43e 7230 983e e157 9e3e bba4 b43e
000002e0: d372 cd3e f788 c73e 0b1e 553f bcc7 a93e
000002f0: addd bb3e 6307 e43e 19f3 953e 7c32 973e
00000300: db86 2f3f 51c9 6f3e 7286 7e3e af7c a63e
00000310: af6c 8b3e c44f 8d3e 573f 613e d0f7 f73e
00000320: 4e46 cd3e c622 9b3e 9dd8 d63e 32d1 273e
00000330: e636 893e c1b1 873e e655 e03e 9192 953e
00000340: 0a35 b83e f9cc 993e e6ce e93e 4099 a93e
00000350: e5b4 ad3e f20c db3e fce4 5d3e 8200 9c3e
00000360: f2d4 733e afe9 b03e 18c6 bf3e 5220 a03e
00000370: d57f a43e 03c9 a63e 3b5d 983e 47e9 9d3e
00000380: 76d7 4a3e 67c1 033f 078d eb3e b383 bb3e
00000390: e2eb 8e3e 7eba bb3e 5081 b23e d84a e53e
000003a0: a9c5 f23e 1cb8 a53e 5b81 a53e 6fdf 7e3e
000003b0: 9741 a73e 252d 673e e2f7 db3e a22b 903e
000003c0: 93ab eb3e a317 ff3e f71d 803e e74b a33e
000003d0: 71af 823e 1407 773e 6a2d 963e 031c 9f3e
000003e0: 92d3 9a3e af14 ad3e 610c 623e fe57 cb3e
000003f0: a393 923e d48c af3e 89be e53e 8ff9 aa3e
0.5236324 0.33072528 0.41309384 0.40727535 0.4610421 0.36092323 0.30928844 0.39403078
0.26366 0.5075116 0.31952995 0.4091906 0.33952767 0.48287314 0.24260746 0.37396765
0.36100578 0.39282942 0.3484285 0.2548153 0.34214568 0.22412866 0.32505983 0.20837434
0.27037755 0.23620003 0.37312415 0.33063948 0.36475828 0.4968151 0.45688665 0.42189574
0.43403783 0.41528645 0.39071545 0.40799928 0.46218115 0.48379073 0.31647137 0.27721575
0.41722736 0.30478635 0.24355914 0.23002923 0.444382 0.34596342 0.37668192 0.35130286
0.37812525 0.38230363 0.42989224 0.52522635 0.31519946 0.4124958 0.40220523 0.4004565
0.36805454 0.30159307 0.38074338 0.32697883 0.41388005 0.5747171 0.3209138 0.2787033
0.9318254 0.33910277 0.28090915 0.33436158 0.2574949 0.34286332 0.3830599 0.30924806
0.277142 0.2597556 0.3139576 0.2691945 0.23915449 0.23115952 0.30269304 0.35901737
0.21030793 0.21864837 0.4638267 0.22415717 0.31275836 0.29300478 0.3463209 0.3529597
0.34102714 0.26560682 0.4327497 0.2627507 0.32325628 0.243733 0.428253 0.30008063
0.36288816 0.31182203 0.28178585 0.41773018 0.24944444 0.29927826 0.2566812 0.39518985
0.3408943 0.49782214 0.27118513 0.2789266 0.41408965 0.37459552 0.28463465 0.2574137
0.3276135 0.35469565 0.31296408 0.3481718 0.37279698 0.24755193 0.33271703 0.40114343
0.35052192 0.3398582 0.31745654 0.29023144 0.29461417 0.21399894 0.5439799 0.46737283
0.50233376 0.38132152 0.32077673 0.40477246 0.3973421 0.19615008 0.40775484 0.3072704
0.2058143 0.3726061 0.34107187 0.44377664 0.44859722 0.2805671 0.51099324 0.26323712
0.26795998 0.32277527 0.3737138 0.32009777 0.3909683 0.41815093 0.275906 0.26312777
0.55166227 0.33145294 0.42962357 0.32096687 0.3441529 0.28073522 0.3369769 0.3758297
0.28465506 0.38479245 0.38498208 0.30221424 0.3175144 0.3945659 0.39524382 0.33605936
0.28073075 0.8712131 0.47896397 0.39919502 0.29890585 0.27145928 0.19300014 0.3305205
0.39857194 0.329561 0.49883 0.36534807 0.4776408 0.2972446 0.3092642 0.3528193
0.40126666 0.38971683 0.83248967 0.33160198 0.36692563 0.44536886 0.2928703 0.29530704
0.6856515 0.2341664 0.24855974 0.32517 0.27231357 0.2759992 0.21996818 0.48431253
0.400927 0.30299968 0.41962138 0.16388395 0.26799697 0.26502803 0.43815535 0.29213384
0.35977966 0.30039194 0.45665663 0.33124733 0.33927074 0.42783314 0.21669382 0.30469137
0.23811701 0.34553286 0.3745582 0.31274658 0.32128778 0.32575235 0.2975863 0.3084204
0.19808754 0.51466984 0.46006033 0.36623916 0.2791434 0.3666572 0.34864283 0.44783664
0.47416428 0.32367027 0.32325253 0.2488992 0.3266723 0.22575815 0.42962557 0.2815829
0.46029338 0.4982272 0.2502286 0.31893846 0.25524476 0.24123794 0.29331523 0.3107606
0.3023954 0.33804843 0.22075035 0.3971557 0.28628263 0.3428713 0.4487193 0.33393523

net.4.weight f4 [128, 256]
00000000: 3d96 c7bc f042 dd3c 4f97 91bc e1d4 973c
00000010: e0d1 eb3b 3e1a 88bc db4f a83d 0e8c 84bd
00000020: 3c7c 7ebb 23b5 0a3d ddc1 df3c 3a22 dcbd
00000030: 1a7a dabd 4a2a 37bd 211b 283c d051 b13c
00000040: 99d8 14bc 1a19 eebd 6522 0fbc bbdf 673c
00000050: 248f 823b 4af7 fdbc 7791 ae3c 07af a4bd
00000060: 751f 413d ea35 823d f53d a7bc 6ca4 38bd
00000070: 8bc3 643d 967e aebd f0c7 523c 4a9a 0b3c
00000080: a810 793d 5b15 c5bc 1b23 50bd a764 2cbd
00000090: a64e 803d 7507 07bc eb10 bdbc 2952 d43c
000000a0: 5c40 debd b316 be3c f1dd 1e3d c45b 133d
000000b0: 7912 263d dc68 72bd 9fd9 38b9 7580 6fbd
000000c0: cd82 cfbd 5be6 31bd 762a 893d 3e3c 233d
000000d0: 66b2 ca3c a264 d03d 5745 393b 8c8b 403c
000000e0: a2a4 033d b939 49bb 514e e339 04ed 1f3c
000000f0: 45fd 1dbc f3e9 e23d fdb8 83bd 9e2e b43c
00000100: b816 0d3d 0fe5 e4bd 8494 95bb 8762 3d3c
00000110: d98d 04be 549b 943d 414e 5c3a dfb5 16ba
00000120: e830 913c 42c7 e0bc 62c0 3c3d f53c 5b3d
00000130: 28a5 a8bd aae9 d33c 547e 893d f8e3 e73c
00000140: e2d0 81bd 5bfe db3d 3db2 ac3b f294 cbba
00000150: 3086 c9bd 590f 833d b845 273b 9838 803d
00000160: e247 303c 647f 313c e3c6 ce3d 20f6 22be
00000170: 35a5 9d3d 9947 cabc 4cc1 8fbc 8008 50bd
00000180: 11c9 193d 67bc 713d 1612 6dbd c9b2 943d
00000190: 920b 13bc 9450 ab3d b40c 8fbd d8b8 9dbc
000001a0: 82cd 4bbd ce51 ffbd 8c9c 42bd 0e81 38bc
000001b0: ce8b 953c 54a0 0e3e ca23 05bc 46a1 6fbd
000001c0: b4da 70bd 3eff 6fbd d495 e63d a08e 923d
000001d0: 5ff9 01bc 7c59 a2bd 47ba 6cbd aee4 d6bb
000001e0: 9c48 ac3b 5290 dcbc 6a22 80bd a0f4 833d
000001f0: 73d7 2a3d fa5b 0ebe c66a dd3c 4992 eb3c
00000200: 9f13 7b3c 0bc2 c63c 968e a0bd 78e3 38bb
00000210: da20 ad3d f176 b23d 59ee fe3c c9d0 f3bc
00000220: ff6e 813d d87a 8ebd 3fd4 2b3d 9aff 823d
00000230: 5d48 4d3d ffa7 5b3c fae1 41bd 08aa b0bd
00000240: da98 f93c 8388 f0ba 668d b2bd 8330 54bd
00000250: 1d93 babd 3fd3 11bd bb90 e53b a4e1 e73d
00000260: 0307 d0bd 4826 b2bb e6b9 2dbd 4876 edbb
00000270: 085b 013e 1a21 1fbd 372f 41bd d59e 293d
00000280: 89cd 1c3d 8d88 6a3c 1599 2cbd 3472 19bd
00000290: c2ad 6dbd 0688 233d 3ecc 793c 6be6 af3c
000002a0: 22b5 26bd 2e84 f2bc 930d cbbb d6d2 d0bd
000002b0: ab71 aebd 0b5e 03be 8f9a 55bd 38c7 00bd
000002c0: d48d 583c 2561 1b3c 78fa 0e3d 972d 9a3c
000002d0: b11e f9bc 0464 5c3d f279 acbc 672c c83b
000002e0: a8b7 ce3c 6441 bdbd 81a0 1d3d 7cbd 253d
000002f0: 7b97 5c3d d932 37bd 9f16 c0bd 809a 093e
00000300: d2b9 c53d 409e 993d 06dc 19bc 5c36 72bd
00000310: 1b85 bb3d e110 fd3d 5743 293d faee db3d
00000320: 973b c63d 777e 30bd a911 0cbd e8c2 a2bc
00000330: 7feb c8bc 068b 98bd 7e95 fd3d 5cd6 b0bc
00000340: 5ece 1dbd 955c 863d 9b0c a73d fe63 76ba
00000350: 127c 6f3d 2f86 c9bd 971e ccbd 8a53 0d3c
00000360: 7bc9 b1bd d300 c9bd f1cb 07be d54a 2bbd
00000370: e457 61bd 20b6 03bc 1357 963b 2ee8 35bd
00000380: c5cd 2d3d 2408 54bd 07fb 9c3d 2fbe ce3c
00000390: 0904 fdbc 013b 8d3c 8ca4 03bc 7636 6a3c
000003a0: 2641 dcbc cf60 853b dd38 2b3d f481 8f3c
000003b0: 30b0 fabc 92db 4c3d 1b6f a53c 8fd9 8e3a
000003c0: 8fc0 6dbd df45 b83c 5197 dfbc 3aa4 6cbd
000003d0: d34b 68bc bd2f 03be 84d6 e8bd cca9 bebc
000003e0: ab30 07bd 4b09 5a3d f173 62bc 2676 90ba
000003f0: 264d d3bd 4f63 a63d 1bde ef3c 9dac 4a3d
-0.024363631 0.027009457 -0.017772345 0.018534126 0.00719665 -0.016614076 0.08218356 -0.06472026
-0.0038831374 0.03386415 0.02731412 -0.10748716 -0.1066782 -0.044718064 0.010260374 0.021645457
-0.009084844 -0.116258815 -0.008736228 0.014152463 0.003984349 -0.031001706 0.021309597 -0.08041196
0.04714914 0.063579395 -0.020415286 -0.04507868 0.055850547 -0.08520238 0.012865052 0.008520672
0.0608069 -0.024058035 -0.05081473 -0.042088177 0.06265001 -0.008241524 -0.023079356 0.025918083
-0.10852119 0.023204183 0.03878588 0.035976186 0.04054496 -0.059182033 -0.00017628678 -0.058472116
-0.1013237 -0.043432575 0.06697552 0.039852373 0.02474327 0.10175444 0.002827009 0.011752021
0.032139428 -0.0030704571 0.00043355164 0.009761099 -0.009642904 0.110797785 -0.06431768 0.021994885
0.034445494 -0.11176502 -0.0045648236 0.011559135 -0.12944736 0.07256189 0.0008403995 -0.0005749147
0.017723516 -0.027438764 0.046081908 0.05352493 -0.08234626 0.025868256 0.06713548 0.028306946
-0.06338669 0.10741874 0.005270271 -0.001553206 -0.09840047 0.06399412 0.0025523733 0.062607944
0.010759326 0.010833595 0.100965284 -0.15914202 0.07697526 -0.024692344 -0.017548226 -0.050789356
0.037545267 0.059017565 -0.057878576 0.07260663 -0.008974927 0.083649784 -0.06984845 -0.01925318
-0.049756534 -0.12466775 -0.047512576 -0.011261238 0.01825514 0.13928348 -0.008126209 -0.05850341
-0.05880232 -0.058593027 0.11259046 0.0715611 -0.00793299 -0.07927224 -0.057794835 -0.0065580225
0.005257679 -0.026924286 -0.06256564 0.06443143 0.041709375 -0.13902274 0.027028453 0.028756278
0.015324502 0.024262449 -0.07839696 -0.0028211754 0.084535316 0.087140925 0.031119512 -0.029762642
0.06319999 -0.06957024 0.04195046 0.063964084 0.05011784 0.013406753 -0.04733465 -0.08626181
0.030468393 -0.001835123 -0.08718376 -0.051804077 -0.09110091 -0.03560185 0.0070057786 0.113223344
-0.101575874 -0.0054366924 -0.042413615 -0.0072467662 0.12632382 -0.038849927 -0.04716417 0.04141124
0.03828195 0.014314783 -0.042138178 -0.03746243 -0.058027036 0.039924644 0.015246449 0.021472177
-0.040700085 -0.029604044 -0.0061966865 -0.10196464 -0.08517774 -0.12828843 -0.05214935 -0.03143999
0.013217408 0.00948361 0.034906834 0.018820567 -0.030410143 0.05380632 -0.021054242 0.006108809
0.025234058 -0.09240988 0.038483147 0.04046391 0.0538554 -0.044726226 -0.09379315 0.13437843
0.09654583 0.07500887 -0.009390837 -0.059133872 0.09156247 0.12356735 0.041323986 0.107389405
0.096793346 -0.043089356 -0.03419653 -0.01986833 -0.024526356 -0.074483916 0.12382029 -0.02158659
-0.038526885 0.06560627 0.08156701 -0.0009399055 0.058467932 -0.098400466 -0.09966772 0.008625874
-0.086810075 -0.0981461 -0.13261391 -0.041819412 -0.05501546 -0.008039027 0.004588017 -0.044410877
0.042432565 -0.051765576 0.07665067 0.025237171 -0.030885713 0.01724005 -0.0080348365 0.014295211
-0.026886534 0.0040703784 0.041802276 0.017518021 -0.03060159 0.050014086 0.02019458 0.0010898578
-0.058044966 0.022494255 -0.027293833 -0.057773806 -0.014178234 -0.1281118 -0.113690406 -0.023274325
-0.033005398 0.05323152 -0.013821588 -0.0011021539 -0.10317449 0.0812441 0.029280713 0.049481023

net.4.bias f4 [128]
00000000: 0b52 17bd 7fd3 0f3c 2c90 de3c 139d b43c
00000010: 3b5c 0aba bce8 0f3d 4b91 4cbd 5230 f73c
00000020: 1772 3bbd d296 fdbc a374 2fbc 4f7b 4f3d
00000030: e751 5dbd b9ae e83c 8d31 94bc a56f b4ba
00000040: c110 2fbc b5df 6b3d f791 503d f45c 083c
00000050: 0ed1 eb3c 2174 03bd bde5 0c3d 027b 233c
00000060: 940d 3ebc e6b3 43bc 0ba4 05bb a6d9 253d
00000070: 7068 2dbd 8042 5b3d a8bc 0dbd ed3c a2bb
00000080: 9423 603d aba9 073d 9c05 08bd bdd1 983c
00000090: 6764 103c 7f4f 90bc 20db a53c 4b4d e13c
000000a0: 9a28 4fbd 779d 5b3d 0735 a9bb 67bf a4bb
000000b0: 304b 333c 18bf 37bd 70eb 81bd 4455 3bbd
000000c0: ec95 02bd 7ea2 71bd 33f7 3e3d 6505 983c
000000d0: 2617 183d d1d2 333d 7845 663d 2368 463d
000000e0: 04a5 74bd cdc5 653c e9a2 97bb d418 25bd
000000f0: 294f 2dbc e242 14bd bd48 e6bc 4eb9 51bd
00000100: 7ca7 1b3d 652e 95bc a9bd 0fbd 9be0 51bd
00000110: 652e adbc 120f 7ebd cd81 6dbd d2ee 19bd
00000120: 50eb 5fbd 20fe cf3c e0c1 153d 3019 093d
00000130: 5af9 6aba e112 28bd 2de4 a9bb ee32 1e3d
00000140: 4661 dabb 2629 d03b 654f 0dbb 4e64 093d
00000150: 5460 80bd 6980 a03c 2bcf 3e3d b8ce 0bbd
00000160: cc46 5bbc 6c45 f5bc a964 cbbb 60d7 103d
00000170: c3fd 6cbd 41ee 73bb a21e b6bc 8c1a 323d
00000180: 43ef e5bc 67f6 e5bc 7bb9 8a3c 34a0 cbbc
00000190: faad cdbc 8ef1 32bd c817 53bc 8a58 4abd
000001a0: d219 f5ba b96c 1ebd e16a 713b d165 f3bc
000001b0: adf6 793b dbf3 8dbc bf72 aebc b5b0 533c
000001c0: 1f17 bf3c f69a 303d 8d4f afbc 7fc4 403d
000001d0: 60d1 fdbc 827b cebc 6cb2 18bd 7866 003d
000001e0: 9735 043d 210d 23bc 39a8 7fbd 0e68 1b3c
000001f0: 7dba 2a3d 40a2 e13c 7ec1 32bc c7df 333c
-0.036943477 0.008778452 0.027168356 0.022047555 -0.00052780256 0.035134062 -0.04994325 0.030174408
-0.0457631 -0.030955706 -0.010708961 0.050654706 -0.054033186 0.028403627 -0.018090034 -0.0013766183
-0.010685147 0.05758639 0.050920453 0.008322943 0.028786208 -0.03209317 0.034398783 0.009978058
-0.011599917 -0.011944747 -0.0020391967 0.04049077 -0.042335927 0.053530216 -0.034603745 -0.0049511106
0.05472143 0.033120792 -0.033208475 0.018654699 0.008813 -0.017616032 0.020246089 0.027502676
-0.05057583 0.053616967 -0.005163792 -0.0050276997 0.010943219 -0.044859976 -0.06343734 -0.045735613
-0.031881258 -0.058992855 0.046622466 0.01855726 0.03713145 0.043902222 0.056218594 0.048439156
-0.059727684 0.01402421 -0.0046275747 -0.04030688 -0.010577955 -0.036196597 -0.028110856 -0.05120211
0.038001522 -0.0182106 -0.035092983 -0.05123959 -0.021140287 -0.06202609 -0.057985116 -0.037581272
-0.05466777 0.02538973 0.036561847 0.033471286 -0.0008963548 -0.04103363 -0.0051846714 0.03862279
-0.006664428 0.0063525615 -0.0021562215 0.033542924 -0.06268373 0.01959248 0.04658429 -0.03413269
-0.0133835785 -0.02994033 -0.006207068 0.035361648 -0.057859194 -0.0037220868 -0.022231404 0.04348235
-0.02806819 -0.028071595 0.016934147 -0.024856664 -0.025107373 -0.043687396 -0.012884088 -0.049400844
-0.0018699712 -0.038677905 0.0036837386 -0.029711636 0.0038141415 -0.017328193 -0.02129495 0.012920548
0.023326455 0.043116532 -0.021400237 0.047062393 -0.030983627 -0.025205377 -0.03727953 0.03134772
0.03227767 -0.009951861 -0.06241629 0.009485258 0.041681755 0.027543187 -0.01091039 0.010978646

net.5.weight f4 [128]
00000000: 5505 803f 879a 7d3f ef3a 7c3f 31ce 793f
00000010: 0d7a 773f eebc 6d3f 7cd9 733f 5123 833f
00000020: 1d7f 7a3f ef3f 6c3f 7a84 6a3f 3f52 713f
00000030: 878f 713f 0886 6a3f 2a65 723f ec5e 863f
00000040: b348 773f 4925 733f f809 823f efd6 783f
00000050: 9e38 723f c0fe 7a3f 307d 713f 83d3 6e3f
00000060: 3117 663f afc6 7a3f 3e05 733f e250 7a3f
00000070: 7298 6e3f 6cc3 803f 511b 803f db31 803f
00000080: 970d 7d3f c6ee 7b3f bfe7 733f 1697 7a3f
00000090: d965 803f 1ec3 803f 9b76 7c3f 6050 7b3f
000000a0: 78a9 863f 842d 753f 7338 763f 0846 7c3f
000000b0: f6d0 753f c099 703f e9f7 793f c023 743f
000000c0: dbb0 743f d838 753f 0e14 723f 0645 753f
000000d0: 0b89 733f bd6b 833f dedf 7e3f 1bf6 7a3f
000000e0: 2155 873f 6614 773f ce9a 753f 0bed 7a3f
000000f0: f1cb 733f 672b 763f feb2 723f d9a3 6f3f
00000100: f4ab 823f 7791 7e3f 4c98 753f 2d11 803f
00000110: ba0d 853f 32d9 723f a790 753f cc5d 703f
00000120: 92aa 823f 927f 7f3f 87bf 763f 37f4 733f
00000130: 8d85 6f3f d579 6e3f 4643 7a3f 3b03 6e3f
00000140: e2ab 763f e26d 6f3f 82f6 793f 4c6f 783f
00000150: 2049 753f cfed 6a3f c3b0 743f e321 813f
00000160: 5744 7a3f cde8 6c3f 8b29 713f 6026 793f
00000170: 5f82 6f3f 14cd 763f 0853 723f 7503 7e3f
00000180: bf79 823f fb7b 723f 4451 813f ef68 703f
00000190: f603 803f bfc8 813f d736 773f 0e1f 743f
000001a0: 46a9 713f 6f03 763f bce5 823f 952b 783f
000001b0: 63bd 743f d064 753f e2c2 783f 2313 6a3f
000001c0: 3607 7e3f ecaf 743f 4188 743f f2b0 5f3f
000001d0: 3ee9 6f3f 0ee3 803f 7e39 793f 7214 743f
000001e0: cb4f 753f a937 823f f63d 733f a2b3 7a3f
000001f0: 9e34 793f 05f1 723f a7a7 733f 2c23 753f
1.0001627 0.99063915 0.98527426 0.9758025 0.9667061 0.9286641 0.9525373 1.0245153
0.9785021 0.92285055 0.91608393 0.9426612 0.9435963 0.91610765 0.94685614 1.0497718
0.96595305 0.9497877 1.0159292 0.9720296 0.9461764 0.9804497 0.94331646 0.9329149
0.8987914 0.9795942 0.94929874 0.9777967 0.93201363 1.0059638 1.0008336 1.0015215
0.9884886 0.98411214 0.9527549 0.9788679 1.0031081 1.0059545 0.9861848 0.9816952
1.0520468 0.95772576 0.96179885 0.9854436 0.96021974 0.93984604 0.97643906 0.9536705
0.9558236 0.9578986 0.9456185 0.95808446 0.95130986 1.0267254 0.99560344 0.9803178
1.0572854 0.965155 0.9593934 0.9801795 0.95233065 0.96159977 0.9480437 0.93609387
1.0208726 0.9944071 0.9593551 1.0005242 1.0394814 0.94862664 0.95923847 0.9389312
1.0208304 0.9980403 0.96386 0.9529452 0.9356316 0.9315465 0.977589 0.9297368
0.9635602 0.9352704 0.97641766 0.97044826 0.95814705 0.9176912 0.95582217 1.0088466
0.9776053 0.92542726 0.94204015 0.9732418 0.93558306 0.96406674 0.94657946 0.99224025
1.0193404 0.9472043 1.0102925 0.93910116 1.0001209 1.0139388 0.96568054 0.95359886
0.94398916 0.9609899 1.0226359 0.969415 0.9560148 0.9585695 0.9717237 0.9143545
0.99229753 0.95580935 0.95520407 0.8737937 0.93715274 1.0069292 0.9735335 0.953437
0.9582488 1.0173236 0.9501642 0.9793035 0.9734591 0.94899017 0.9517769 0.95756793
